{"config": {"layers": [{"config": {"batch_input_shape": [null, 3, 112, 112], "name": "input_1", "dtype": "float32", "sparse": false}, "inbound_nodes": [], "name": "input_1", "class_name": "InputLayer"}, {"config": {"dilation_rate": [1, 1], "strides": [1, 1], "kernel_initializer": {"config": {"distribution": "uniform", "scale": 2.0, "seed": null, "mode": "fan_in"}, "class_name": "VarianceScaling"}, "use_bias": true, "padding": "same", "name": "conv2d_1", "kernel_regularizer": null, "activity_regularizer": null, "bias_initializer": {"config": {}, "class_name": "Zeros"}, "bias_regularizer": null, "trainable": true, "kernel_size": [3, 3], "data_format": "channels_first", "bias_constraint": null, "filters": 6, "activation": "linear", "kernel_constraint": null}, "inbound_nodes": [[["input_1", 0, 0, {}]]], "name": "conv2d_1", "class_name": "Conv2D"}, {"config": {"beta_regularizer": null, "gamma_constraint": null, "scale": true, "momentum": 0.99, "epsilon": 0.001, "name": "batch_normalization_1", "beta_initializer": {"config": {}, "class_name": "Zeros"}, "axis": 1, "trainable": true, "gamma_initializer": {"config": {}, "class_name": "Ones"}, "moving_variance_initializer": {"config": {}, "class_name": "Ones"}, "center": true, "moving_mean_initializer": {"config": {}, "class_name": "Zeros"}, "gamma_regularizer": null, "beta_constraint": null}, "inbound_nodes": [[["conv2d_1", 0, 0, {}]]], "name": "batch_normalization_1", "class_name": "BatchNormalization"}, {"config": {"trainable": true, "name": "elu_1", "alpha": 1.0}, "inbound_nodes": [[["batch_normalization_1", 0, 0, {}]]], "name": "elu_1", "class_name": "ELU"}, {"config": {"dilation_rate": [1, 1], "strides": [1, 1], "kernel_initializer": {"config": {"distribution": "uniform", "scale": 2.0, "seed": null, "mode": "fan_in"}, "class_name": "VarianceScaling"}, "use_bias": true, "padding": "same", "name": "conv2d_2", "kernel_regularizer": null, "activity_regularizer": null, "bias_initializer": {"config": {}, "class_name": "Zeros"}, "bias_regularizer": null, "trainable": true, "kernel_size": [3, 3], "data_format": "channels_first", "bias_constraint": null, "filters": 6, "activation": "linear", "kernel_constraint": null}, "inbound_nodes": [[["elu_1", 0, 0, {}]]], "name": "conv2d_2", "class_name": "Conv2D"}, {"config": {"beta_regularizer": null, "gamma_constraint": null, "scale": true, "momentum": 0.99, "epsilon": 0.001, "name": "batch_normalization_2", "beta_initializer": {"config": {}, "class_name": "Zeros"}, "axis": 1, "trainable": true, "gamma_initializer": {"config": {}, "class_name": "Ones"}, "moving_variance_initializer": {"config": {}, "class_name": "Ones"}, "center": true, "moving_mean_initializer": {"config": {}, "class_name": "Zeros"}, "gamma_regularizer": null, "beta_constraint": null}, "inbound_nodes": [[["conv2d_2", 0, 0, {}]]], "name": "batch_normalization_2", "class_name": "BatchNormalization"}, {"config": {"trainable": true, "name": "elu_2", "alpha": 1.0}, "inbound_nodes": [[["batch_normalization_2", 0, 0, {}]]], "name": "elu_2", "class_name": "ELU"}, {"config": {"strides": [2, 2], "trainable": true, "data_format": "channels_first", "padding": "valid", "name": "max_pooling2d_1", "pool_size": [2, 2]}, "inbound_nodes": [[["elu_2", 0, 0, {}]]], "name": "max_pooling2d_1", "class_name": "MaxPooling2D"}, {"config": {"dilation_rate": [1, 1], "strides": [1, 1], "kernel_initializer": {"config": {"distribution": "uniform", "scale": 2.0, "seed": null, "mode": "fan_in"}, "class_name": "VarianceScaling"}, "use_bias": true, "padding": "same", "name": "conv2d_3", "kernel_regularizer": null, "activity_regularizer": null, "bias_initializer": {"config": {}, "class_name": "Zeros"}, "bias_regularizer": null, "trainable": true, "kernel_size": [3, 3], "data_format": "channels_first", "bias_constraint": null, "filters": 12, "activation": "linear", "kernel_constraint": null}, "inbound_nodes": [[["max_pooling2d_1", 0, 0, {}]]], "name": "conv2d_3", "class_name": "Conv2D"}, {"config": {"beta_regularizer": null, "gamma_constraint": null, "scale": true, "momentum": 0.99, "epsilon": 0.001, "name": "batch_normalization_3", "beta_initializer": {"config": {}, "class_name": "Zeros"}, "axis": 1, "trainable": true, "gamma_initializer": {"config": {}, "class_name": "Ones"}, "moving_variance_initializer": {"config": {}, "class_name": "Ones"}, "center": true, "moving_mean_initializer": {"config": {}, "class_name": "Zeros"}, "gamma_regularizer": null, "beta_constraint": null}, "inbound_nodes": [[["conv2d_3", 0, 0, {}]]], "name": "batch_normalization_3", "class_name": "BatchNormalization"}, {"config": {"trainable": true, "name": "elu_3", "alpha": 1.0}, "inbound_nodes": [[["batch_normalization_3", 0, 0, {}]]], "name": "elu_3", "class_name": "ELU"}, {"config": {"dilation_rate": [1, 1], "strides": [1, 1], "kernel_initializer": {"config": {"distribution": "uniform", "scale": 2.0, "seed": null, "mode": "fan_in"}, "class_name": "VarianceScaling"}, "use_bias": true, "padding": "same", "name": "conv2d_4", "kernel_regularizer": null, "activity_regularizer": null, "bias_initializer": {"config": {}, "class_name": "Zeros"}, "bias_regularizer": null, "trainable": true, "kernel_size": [3, 3], "data_format": "channels_first", "bias_constraint": null, "filters": 12, "activation": "linear", "kernel_constraint": null}, "inbound_nodes": [[["elu_3", 0, 0, {}]]], "name": "conv2d_4", "class_name": "Conv2D"}, {"config": {"beta_regularizer": null, "gamma_constraint": null, "scale": true, "momentum": 0.99, "epsilon": 0.001, "name": "batch_normalization_4", "beta_initializer": {"config": {}, "class_name": "Zeros"}, "axis": 1, "trainable": true, "gamma_initializer": {"config": {}, "class_name": "Ones"}, "moving_variance_initializer": {"config": {}, "class_name": "Ones"}, "center": true, "moving_mean_initializer": {"config": {}, "class_name": "Zeros"}, "gamma_regularizer": null, "beta_constraint": null}, "inbound_nodes": [[["conv2d_4", 0, 0, {}]]], "name": "batch_normalization_4", "class_name": "BatchNormalization"}, {"config": {"trainable": true, "name": "elu_4", "alpha": 1.0}, "inbound_nodes": [[["batch_normalization_4", 0, 0, {}]]], "name": "elu_4", "class_name": "ELU"}, {"config": {"strides": [2, 2], "trainable": true, "data_format": "channels_first", "padding": "valid", "name": "max_pooling2d_2", "pool_size": [2, 2]}, "inbound_nodes": [[["elu_4", 0, 0, {}]]], "name": "max_pooling2d_2", "class_name": "MaxPooling2D"}, {"config": {"dilation_rate": [1, 1], "strides": [1, 1], "kernel_initializer": {"config": {"distribution": "uniform", "scale": 2.0, "seed": null, "mode": "fan_in"}, "class_name": "VarianceScaling"}, "use_bias": true, "padding": "same", "name": "conv2d_5", "kernel_regularizer": null, "activity_regularizer": null, "bias_initializer": {"config": {}, "class_name": "Zeros"}, "bias_regularizer": null, "trainable": true, "kernel_size": [3, 3], "data_format": "channels_first", "bias_constraint": null, "filters": 24, "activation": "linear", "kernel_constraint": null}, "inbound_nodes": [[["max_pooling2d_2", 0, 0, {}]]], "name": "conv2d_5", "class_name": "Conv2D"}, {"config": {"beta_regularizer": null, "gamma_constraint": null, "scale": true, "momentum": 0.99, "epsilon": 0.001, "name": "batch_normalization_5", "beta_initializer": {"config": {}, "class_name": "Zeros"}, "axis": 1, "trainable": true, "gamma_initializer": {"config": {}, "class_name": "Ones"}, "moving_variance_initializer": {"config": {}, "class_name": "Ones"}, "center": true, "moving_mean_initializer": {"config": {}, "class_name": "Zeros"}, "gamma_regularizer": null, "beta_constraint": null}, "inbound_nodes": [[["conv2d_5", 0, 0, {}]]], "name": "batch_normalization_5", "class_name": "BatchNormalization"}, {"config": {"trainable": true, "name": "elu_5", "alpha": 1.0}, "inbound_nodes": [[["batch_normalization_5", 0, 0, {}]]], "name": "elu_5", "class_name": "ELU"}, {"config": {"dilation_rate": [1, 1], "strides": [1, 1], "kernel_initializer": {"config": {"distribution": "uniform", "scale": 2.0, "seed": null, "mode": "fan_in"}, "class_name": "VarianceScaling"}, "use_bias": true, "padding": "same", "name": "conv2d_6", "kernel_regularizer": null, "activity_regularizer": null, "bias_initializer": {"config": {}, "class_name": "Zeros"}, "bias_regularizer": null, "trainable": true, "kernel_size": [3, 3], "data_format": "channels_first", "bias_constraint": null, "filters": 24, "activation": "linear", "kernel_constraint": null}, "inbound_nodes": [[["elu_5", 0, 0, {}]]], "name": "conv2d_6", "class_name": "Conv2D"}, {"config": {"beta_regularizer": null, "gamma_constraint": null, "scale": true, "momentum": 0.99, "epsilon": 0.001, "name": "batch_normalization_6", "beta_initializer": {"config": {}, "class_name": "Zeros"}, "axis": 1, "trainable": true, "gamma_initializer": {"config": {}, "class_name": "Ones"}, "moving_variance_initializer": {"config": {}, "class_name": "Ones"}, "center": true, "moving_mean_initializer": {"config": {}, "class_name": "Zeros"}, "gamma_regularizer": null, "beta_constraint": null}, "inbound_nodes": [[["conv2d_6", 0, 0, {}]]], "name": "batch_normalization_6", "class_name": "BatchNormalization"}, {"config": {"trainable": true, "name": "elu_6", "alpha": 1.0}, "inbound_nodes": [[["batch_normalization_6", 0, 0, {}]]], "name": "elu_6", "class_name": "ELU"}, {"config": {"strides": [2, 2], "trainable": true, "data_format": "channels_first", "padding": "valid", "name": "max_pooling2d_3", "pool_size": [2, 2]}, "inbound_nodes": [[["elu_6", 0, 0, {}]]], "name": "max_pooling2d_3", "class_name": "MaxPooling2D"}, {"config": {"dilation_rate": [1, 1], "strides": [1, 1], "kernel_initializer": {"config": {"distribution": "uniform", "scale": 2.0, "seed": null, "mode": "fan_in"}, "class_name": "VarianceScaling"}, "use_bias": true, "padding": "same", "name": "conv2d_7", "kernel_regularizer": null, "activity_regularizer": null, "bias_initializer": {"config": {}, "class_name": "Zeros"}, "bias_regularizer": null, "trainable": true, "kernel_size": [3, 3], "data_format": "channels_first", "bias_constraint": null, "filters": 48, "activation": "linear", "kernel_constraint": null}, "inbound_nodes": [[["max_pooling2d_3", 0, 0, {}]]], "name": "conv2d_7", "class_name": "Conv2D"}, {"config": {"beta_regularizer": null, "gamma_constraint": null, "scale": true, "momentum": 0.99, "epsilon": 0.001, "name": "batch_normalization_7", "beta_initializer": {"config": {}, "class_name": "Zeros"}, "axis": 1, "trainable": true, "gamma_initializer": {"config": {}, "class_name": "Ones"}, "moving_variance_initializer": {"config": {}, "class_name": "Ones"}, "center": true, "moving_mean_initializer": {"config": {}, "class_name": "Zeros"}, "gamma_regularizer": null, "beta_constraint": null}, "inbound_nodes": [[["conv2d_7", 0, 0, {}]]], "name": "batch_normalization_7", "class_name": "BatchNormalization"}, {"config": {"trainable": true, "name": "elu_7", "alpha": 1.0}, "inbound_nodes": [[["batch_normalization_7", 0, 0, {}]]], "name": "elu_7", "class_name": "ELU"}, {"config": {"dilation_rate": [1, 1], "strides": [1, 1], "kernel_initializer": {"config": {"distribution": "uniform", "scale": 2.0, "seed": null, "mode": "fan_in"}, "class_name": "VarianceScaling"}, "use_bias": true, "padding": "same", "name": "conv2d_8", "kernel_regularizer": null, "activity_regularizer": null, "bias_initializer": {"config": {}, "class_name": "Zeros"}, "bias_regularizer": null, "trainable": true, "kernel_size": [3, 3], "data_format": "channels_first", "bias_constraint": null, "filters": 48, "activation": "linear", "kernel_constraint": null}, "inbound_nodes": [[["elu_7", 0, 0, {}]]], "name": "conv2d_8", "class_name": "Conv2D"}, {"config": {"beta_regularizer": null, "gamma_constraint": null, "scale": true, "momentum": 0.99, "epsilon": 0.001, "name": "batch_normalization_8", "beta_initializer": {"config": {}, "class_name": "Zeros"}, "axis": 1, "trainable": true, "gamma_initializer": {"config": {}, "class_name": "Ones"}, "moving_variance_initializer": {"config": {}, "class_name": "Ones"}, "center": true, "moving_mean_initializer": {"config": {}, "class_name": "Zeros"}, "gamma_regularizer": null, "beta_constraint": null}, "inbound_nodes": [[["conv2d_8", 0, 0, {}]]], "name": "batch_normalization_8", "class_name": "BatchNormalization"}, {"config": {"trainable": true, "name": "elu_8", "alpha": 1.0}, "inbound_nodes": [[["batch_normalization_8", 0, 0, {}]]], "name": "elu_8", "class_name": "ELU"}, {"config": {"strides": [2, 2], "trainable": true, "data_format": "channels_first", "padding": "valid", "name": "max_pooling2d_4", "pool_size": [2, 2]}, "inbound_nodes": [[["elu_8", 0, 0, {}]]], "name": "max_pooling2d_4", "class_name": "MaxPooling2D"}, {"config": {"dilation_rate": [1, 1], "strides": [1, 1], "kernel_initializer": {"config": {"distribution": "uniform", "scale": 2.0, "seed": null, "mode": "fan_in"}, "class_name": "VarianceScaling"}, "use_bias": true, "padding": "same", "name": "conv2d_9", "kernel_regularizer": null, "activity_regularizer": null, "bias_initializer": {"config": {}, "class_name": "Zeros"}, "bias_regularizer": null, "trainable": true, "kernel_size": [3, 3], "data_format": "channels_first", "bias_constraint": null, "filters": 96, "activation": "linear", "kernel_constraint": null}, "inbound_nodes": [[["max_pooling2d_4", 0, 0, {}]]], "name": "conv2d_9", "class_name": "Conv2D"}, {"config": {"beta_regularizer": null, "gamma_constraint": null, "scale": true, "momentum": 0.99, "epsilon": 0.001, "name": "batch_normalization_9", "beta_initializer": {"config": {}, "class_name": "Zeros"}, "axis": 1, "trainable": true, "gamma_initializer": {"config": {}, "class_name": "Ones"}, "moving_variance_initializer": {"config": {}, "class_name": "Ones"}, "center": true, "moving_mean_initializer": {"config": {}, "class_name": "Zeros"}, "gamma_regularizer": null, "beta_constraint": null}, "inbound_nodes": [[["conv2d_9", 0, 0, {}]]], "name": "batch_normalization_9", "class_name": "BatchNormalization"}, {"config": {"trainable": true, "name": "elu_9", "alpha": 1.0}, "inbound_nodes": [[["batch_normalization_9", 0, 0, {}]]], "name": "elu_9", "class_name": "ELU"}, {"config": {"dilation_rate": [1, 1], "strides": [1, 1], "kernel_initializer": {"config": {"distribution": "uniform", "scale": 2.0, "seed": null, "mode": "fan_in"}, "class_name": "VarianceScaling"}, "use_bias": true, "padding": "same", "name": "conv2d_10", "kernel_regularizer": null, "activity_regularizer": null, "bias_initializer": {"config": {}, "class_name": "Zeros"}, "bias_regularizer": null, "trainable": true, "kernel_size": [3, 3], "data_format": "channels_first", "bias_constraint": null, "filters": 96, "activation": "linear", "kernel_constraint": null}, "inbound_nodes": [[["elu_9", 0, 0, {}]]], "name": "conv2d_10", "class_name": "Conv2D"}, {"config": {"beta_regularizer": null, "gamma_constraint": null, "scale": true, "momentum": 0.99, "epsilon": 0.001, "name": "batch_normalization_10", "beta_initializer": {"config": {}, "class_name": "Zeros"}, "axis": 1, "trainable": true, "gamma_initializer": {"config": {}, "class_name": "Ones"}, "moving_variance_initializer": {"config": {}, "class_name": "Ones"}, "center": true, "moving_mean_initializer": {"config": {}, "class_name": "Zeros"}, "gamma_regularizer": null, "beta_constraint": null}, "inbound_nodes": [[["conv2d_10", 0, 0, {}]]], "name": "batch_normalization_10", "class_name": "BatchNormalization"}, {"config": {"trainable": true, "name": "elu_10", "alpha": 1.0}, "inbound_nodes": [[["batch_normalization_10", 0, 0, {}]]], "name": "elu_10", "class_name": "ELU"}, {"config": {"trainable": true, "name": "up_sampling2d_1", "data_format": "channels_first", "size": [2, 2]}, "inbound_nodes": [[["elu_10", 0, 0, {}]]], "name": "up_sampling2d_1", "class_name": "UpSampling2D"}, {"config": {"output_shape_type": "raw", "output_mask": null, "mode_type": "raw", "output_mask_type": "raw", "arguments": {}, "concat_axis": 1, "output_shape": null, "dot_axes": -1, "name": "merge_1", "mode": "concat"}, "inbound_nodes": [[["up_sampling2d_1", 0, 0, {"mask": [null, null]}], ["elu_8", 0, 0, {"mask": [null, null]}]]], "name": "merge_1", "class_name": "Merge"}, {"config": {"dilation_rate": [1, 1], "strides": [1, 1], "kernel_initializer": {"config": {"distribution": "uniform", "scale": 2.0, "seed": null, "mode": "fan_in"}, "class_name": "VarianceScaling"}, "use_bias": true, "padding": "same", "name": "conv2d_11", "kernel_regularizer": null, "activity_regularizer": null, "bias_initializer": {"config": {}, "class_name": "Zeros"}, "bias_regularizer": null, "trainable": true, "kernel_size": [3, 3], "data_format": "channels_first", "bias_constraint": null, "filters": 48, "activation": "linear", "kernel_constraint": null}, "inbound_nodes": [[["merge_1", 0, 0, {}]]], "name": "conv2d_11", "class_name": "Conv2D"}, {"config": {"beta_regularizer": null, "gamma_constraint": null, "scale": true, "momentum": 0.99, "epsilon": 0.001, "name": "batch_normalization_11", "beta_initializer": {"config": {}, "class_name": "Zeros"}, "axis": 1, "trainable": true, "gamma_initializer": {"config": {}, "class_name": "Ones"}, "moving_variance_initializer": {"config": {}, "class_name": "Ones"}, "center": true, "moving_mean_initializer": {"config": {}, "class_name": "Zeros"}, "gamma_regularizer": null, "beta_constraint": null}, "inbound_nodes": [[["conv2d_11", 0, 0, {}]]], "name": "batch_normalization_11", "class_name": "BatchNormalization"}, {"config": {"trainable": true, "name": "elu_11", "alpha": 1.0}, "inbound_nodes": [[["batch_normalization_11", 0, 0, {}]]], "name": "elu_11", "class_name": "ELU"}, {"config": {"dilation_rate": [1, 1], "strides": [1, 1], "kernel_initializer": {"config": {"distribution": "uniform", "scale": 2.0, "seed": null, "mode": "fan_in"}, "class_name": "VarianceScaling"}, "use_bias": true, "padding": "same", "name": "conv2d_12", "kernel_regularizer": null, "activity_regularizer": null, "bias_initializer": {"config": {}, "class_name": "Zeros"}, "bias_regularizer": null, "trainable": true, "kernel_size": [3, 3], "data_format": "channels_first", "bias_constraint": null, "filters": 48, "activation": "linear", "kernel_constraint": null}, "inbound_nodes": [[["elu_11", 0, 0, {}]]], "name": "conv2d_12", "class_name": "Conv2D"}, {"config": {"beta_regularizer": null, "gamma_constraint": null, "scale": true, "momentum": 0.99, "epsilon": 0.001, "name": "batch_normalization_12", "beta_initializer": {"config": {}, "class_name": "Zeros"}, "axis": 1, "trainable": true, "gamma_initializer": {"config": {}, "class_name": "Ones"}, "moving_variance_initializer": {"config": {}, "class_name": "Ones"}, "center": true, "moving_mean_initializer": {"config": {}, "class_name": "Zeros"}, "gamma_regularizer": null, "beta_constraint": null}, "inbound_nodes": [[["conv2d_12", 0, 0, {}]]], "name": "batch_normalization_12", "class_name": "BatchNormalization"}, {"config": {"trainable": true, "name": "elu_12", "alpha": 1.0}, "inbound_nodes": [[["batch_normalization_12", 0, 0, {}]]], "name": "elu_12", "class_name": "ELU"}, {"config": {"trainable": true, "name": "up_sampling2d_2", "data_format": "channels_first", "size": [2, 2]}, "inbound_nodes": [[["elu_12", 0, 0, {}]]], "name": "up_sampling2d_2", "class_name": "UpSampling2D"}, {"config": {"output_shape_type": "raw", "output_mask": null, "mode_type": "raw", "output_mask_type": "raw", "arguments": {}, "concat_axis": 1, "output_shape": null, "dot_axes": -1, "name": "merge_2", "mode": "concat"}, "inbound_nodes": [[["up_sampling2d_2", 0, 0, {"mask": [null, null]}], ["elu_6", 0, 0, {"mask": [null, null]}]]], "name": "merge_2", "class_name": "Merge"}, {"config": {"dilation_rate": [1, 1], "strides": [1, 1], "kernel_initializer": {"config": {"distribution": "uniform", "scale": 2.0, "seed": null, "mode": "fan_in"}, "class_name": "VarianceScaling"}, "use_bias": true, "padding": "same", "name": "conv2d_13", "kernel_regularizer": null, "activity_regularizer": null, "bias_initializer": {"config": {}, "class_name": "Zeros"}, "bias_regularizer": null, "trainable": true, "kernel_size": [3, 3], "data_format": "channels_first", "bias_constraint": null, "filters": 24, "activation": "linear", "kernel_constraint": null}, "inbound_nodes": [[["merge_2", 0, 0, {}]]], "name": "conv2d_13", "class_name": "Conv2D"}, {"config": {"beta_regularizer": null, "gamma_constraint": null, "scale": true, "momentum": 0.99, "epsilon": 0.001, "name": "batch_normalization_13", "beta_initializer": {"config": {}, "class_name": "Zeros"}, "axis": 1, "trainable": true, "gamma_initializer": {"config": {}, "class_name": "Ones"}, "moving_variance_initializer": {"config": {}, "class_name": "Ones"}, "center": true, "moving_mean_initializer": {"config": {}, "class_name": "Zeros"}, "gamma_regularizer": null, "beta_constraint": null}, "inbound_nodes": [[["conv2d_13", 0, 0, {}]]], "name": "batch_normalization_13", "class_name": "BatchNormalization"}, {"config": {"trainable": true, "name": "elu_13", "alpha": 1.0}, "inbound_nodes": [[["batch_normalization_13", 0, 0, {}]]], "name": "elu_13", "class_name": "ELU"}, {"config": {"dilation_rate": [1, 1], "strides": [1, 1], "kernel_initializer": {"config": {"distribution": "uniform", "scale": 2.0, "seed": null, "mode": "fan_in"}, "class_name": "VarianceScaling"}, "use_bias": true, "padding": "same", "name": "conv2d_14", "kernel_regularizer": null, "activity_regularizer": null, "bias_initializer": {"config": {}, "class_name": "Zeros"}, "bias_regularizer": null, "trainable": true, "kernel_size": [3, 3], "data_format": "channels_first", "bias_constraint": null, "filters": 24, "activation": "linear", "kernel_constraint": null}, "inbound_nodes": [[["elu_13", 0, 0, {}]]], "name": "conv2d_14", "class_name": "Conv2D"}, {"config": {"beta_regularizer": null, "gamma_constraint": null, "scale": true, "momentum": 0.99, "epsilon": 0.001, "name": "batch_normalization_14", "beta_initializer": {"config": {}, "class_name": "Zeros"}, "axis": 1, "trainable": true, "gamma_initializer": {"config": {}, "class_name": "Ones"}, "moving_variance_initializer": {"config": {}, "class_name": "Ones"}, "center": true, "moving_mean_initializer": {"config": {}, "class_name": "Zeros"}, "gamma_regularizer": null, "beta_constraint": null}, "inbound_nodes": [[["conv2d_14", 0, 0, {}]]], "name": "batch_normalization_14", "class_name": "BatchNormalization"}, {"config": {"trainable": true, "name": "elu_14", "alpha": 1.0}, "inbound_nodes": [[["batch_normalization_14", 0, 0, {}]]], "name": "elu_14", "class_name": "ELU"}, {"config": {"trainable": true, "name": "up_sampling2d_3", "data_format": "channels_first", "size": [2, 2]}, "inbound_nodes": [[["elu_14", 0, 0, {}]]], "name": "up_sampling2d_3", "class_name": "UpSampling2D"}, {"config": {"output_shape_type": "raw", "output_mask": null, "mode_type": "raw", "output_mask_type": "raw", "arguments": {}, "concat_axis": 1, "output_shape": null, "dot_axes": -1, "name": "merge_3", "mode": "concat"}, "inbound_nodes": [[["up_sampling2d_3", 0, 0, {"mask": [null, null]}], ["elu_4", 0, 0, {"mask": [null, null]}]]], "name": "merge_3", "class_name": "Merge"}, {"config": {"dilation_rate": [1, 1], "strides": [1, 1], "kernel_initializer": {"config": {"distribution": "uniform", "scale": 2.0, "seed": null, "mode": "fan_in"}, "class_name": "VarianceScaling"}, "use_bias": true, "padding": "same", "name": "conv2d_15", "kernel_regularizer": null, "activity_regularizer": null, "bias_initializer": {"config": {}, "class_name": "Zeros"}, "bias_regularizer": null, "trainable": true, "kernel_size": [3, 3], "data_format": "channels_first", "bias_constraint": null, "filters": 12, "activation": "linear", "kernel_constraint": null}, "inbound_nodes": [[["merge_3", 0, 0, {}]]], "name": "conv2d_15", "class_name": "Conv2D"}, {"config": {"beta_regularizer": null, "gamma_constraint": null, "scale": true, "momentum": 0.99, "epsilon": 0.001, "name": "batch_normalization_15", "beta_initializer": {"config": {}, "class_name": "Zeros"}, "axis": 1, "trainable": true, "gamma_initializer": {"config": {}, "class_name": "Ones"}, "moving_variance_initializer": {"config": {}, "class_name": "Ones"}, "center": true, "moving_mean_initializer": {"config": {}, "class_name": "Zeros"}, "gamma_regularizer": null, "beta_constraint": null}, "inbound_nodes": [[["conv2d_15", 0, 0, {}]]], "name": "batch_normalization_15", "class_name": "BatchNormalization"}, {"config": {"trainable": true, "name": "elu_15", "alpha": 1.0}, "inbound_nodes": [[["batch_normalization_15", 0, 0, {}]]], "name": "elu_15", "class_name": "ELU"}, {"config": {"dilation_rate": [1, 1], "strides": [1, 1], "kernel_initializer": {"config": {"distribution": "uniform", "scale": 2.0, "seed": null, "mode": "fan_in"}, "class_name": "VarianceScaling"}, "use_bias": true, "padding": "same", "name": "conv2d_16", "kernel_regularizer": null, "activity_regularizer": null, "bias_initializer": {"config": {}, "class_name": "Zeros"}, "bias_regularizer": null, "trainable": true, "kernel_size": [3, 3], "data_format": "channels_first", "bias_constraint": null, "filters": 12, "activation": "linear", "kernel_constraint": null}, "inbound_nodes": [[["elu_15", 0, 0, {}]]], "name": "conv2d_16", "class_name": "Conv2D"}, {"config": {"beta_regularizer": null, "gamma_constraint": null, "scale": true, "momentum": 0.99, "epsilon": 0.001, "name": "batch_normalization_16", "beta_initializer": {"config": {}, "class_name": "Zeros"}, "axis": 1, "trainable": true, "gamma_initializer": {"config": {}, "class_name": "Ones"}, "moving_variance_initializer": {"config": {}, "class_name": "Ones"}, "center": true, "moving_mean_initializer": {"config": {}, "class_name": "Zeros"}, "gamma_regularizer": null, "beta_constraint": null}, "inbound_nodes": [[["conv2d_16", 0, 0, {}]]], "name": "batch_normalization_16", "class_name": "BatchNormalization"}, {"config": {"trainable": true, "name": "elu_16", "alpha": 1.0}, "inbound_nodes": [[["batch_normalization_16", 0, 0, {}]]], "name": "elu_16", "class_name": "ELU"}, {"config": {"trainable": true, "name": "up_sampling2d_4", "data_format": "channels_first", "size": [2, 2]}, "inbound_nodes": [[["elu_16", 0, 0, {}]]], "name": "up_sampling2d_4", "class_name": "UpSampling2D"}, {"config": {"output_shape_type": "raw", "output_mask": null, "mode_type": "raw", "output_mask_type": "raw", "arguments": {}, "concat_axis": 1, "output_shape": null, "dot_axes": -1, "name": "merge_4", "mode": "concat"}, "inbound_nodes": [[["up_sampling2d_4", 0, 0, {"mask": [null, null]}], ["elu_2", 0, 0, {"mask": [null, null]}]]], "name": "merge_4", "class_name": "Merge"}, {"config": {"dilation_rate": [1, 1], "strides": [1, 1], "kernel_initializer": {"config": {"distribution": "uniform", "scale": 2.0, "seed": null, "mode": "fan_in"}, "class_name": "VarianceScaling"}, "use_bias": true, "padding": "same", "name": "conv2d_17", "kernel_regularizer": null, "activity_regularizer": null, "bias_initializer": {"config": {}, "class_name": "Zeros"}, "bias_regularizer": null, "trainable": true, "kernel_size": [3, 3], "data_format": "channels_first", "bias_constraint": null, "filters": 6, "activation": "linear", "kernel_constraint": null}, "inbound_nodes": [[["merge_4", 0, 0, {}]]], "name": "conv2d_17", "class_name": "Conv2D"}, {"config": {"beta_regularizer": null, "gamma_constraint": null, "scale": true, "momentum": 0.99, "epsilon": 0.001, "name": "batch_normalization_17", "beta_initializer": {"config": {}, "class_name": "Zeros"}, "axis": 1, "trainable": true, "gamma_initializer": {"config": {}, "class_name": "Ones"}, "moving_variance_initializer": {"config": {}, "class_name": "Ones"}, "center": true, "moving_mean_initializer": {"config": {}, "class_name": "Zeros"}, "gamma_regularizer": null, "beta_constraint": null}, "inbound_nodes": [[["conv2d_17", 0, 0, {}]]], "name": "batch_normalization_17", "class_name": "BatchNormalization"}, {"config": {"trainable": true, "name": "elu_17", "alpha": 1.0}, "inbound_nodes": [[["batch_normalization_17", 0, 0, {}]]], "name": "elu_17", "class_name": "ELU"}, {"config": {"dilation_rate": [1, 1], "strides": [1, 1], "kernel_initializer": {"config": {"distribution": "uniform", "scale": 2.0, "seed": null, "mode": "fan_in"}, "class_name": "VarianceScaling"}, "use_bias": true, "padding": "same", "name": "conv2d_18", "kernel_regularizer": null, "activity_regularizer": null, "bias_initializer": {"config": {}, "class_name": "Zeros"}, "bias_regularizer": null, "trainable": true, "kernel_size": [3, 3], "data_format": "channels_first", "bias_constraint": null, "filters": 6, "activation": "linear", "kernel_constraint": null}, "inbound_nodes": [[["elu_17", 0, 0, {}]]], "name": "conv2d_18", "class_name": "Conv2D"}, {"config": {"trainable": true, "name": "cropping2d_1", "data_format": "channels_first", "cropping": [[16, 16], [16, 16]]}, "inbound_nodes": [[["conv2d_18", 0, 0, {}]]], "name": "cropping2d_1", "class_name": "Cropping2D"}, {"config": {"beta_regularizer": null, "gamma_constraint": null, "scale": true, "momentum": 0.99, "epsilon": 0.001, "name": "batch_normalization_18", "beta_initializer": {"config": {}, "class_name": "Zeros"}, "axis": 1, "trainable": true, "gamma_initializer": {"config": {}, "class_name": "Ones"}, "moving_variance_initializer": {"config": {}, "class_name": "Ones"}, "center": true, "moving_mean_initializer": {"config": {}, "class_name": "Zeros"}, "gamma_regularizer": null, "beta_constraint": null}, "inbound_nodes": [[["cropping2d_1", 0, 0, {}]]], "name": "batch_normalization_18", "class_name": "BatchNormalization"}, {"config": {"trainable": true, "name": "elu_18", "alpha": 1.0}, "inbound_nodes": [[["batch_normalization_18", 0, 0, {}]]], "name": "elu_18", "class_name": "ELU"}, {"config": {"dilation_rate": [1, 1], "strides": [1, 1], "kernel_initializer": {"config": {"distribution": "uniform", "scale": 1.0, "seed": null, "mode": "fan_avg"}, "class_name": "VarianceScaling"}, "use_bias": true, "padding": "valid", "name": "conv2d_19", "kernel_regularizer": null, "activity_regularizer": null, "bias_initializer": {"config": {}, "class_name": "Zeros"}, "bias_regularizer": null, "trainable": true, "kernel_size": [1, 1], "data_format": "channels_first", "bias_constraint": null, "filters": 1, "activation": "sigmoid", "kernel_constraint": null}, "inbound_nodes": [[["elu_18", 0, 0, {}]]], "name": "conv2d_19", "class_name": "Conv2D"}], "input_layers": [["input_1", 0, 0]], "name": "model_1", "output_layers": [["conv2d_19", 0, 0]]}, "keras_version": "2.1.5", "class_name": "Model", "backend": "tensorflow"}