{"keras_version": "2.1.5", "config": {"input_layers": [["input_1", 0, 0]], "name": "model_1", "output_layers": [["conv2d_19", 0, 0]], "layers": [{"config": {"dtype": "float32", "name": "input_1", "batch_input_shape": [null, 3, 112, 112], "sparse": false}, "name": "input_1", "class_name": "InputLayer", "inbound_nodes": []}, {"config": {"kernel_initializer": {"config": {"seed": null, "scale": 2.0, "mode": "fan_in", "distribution": "uniform"}, "class_name": "VarianceScaling"}, "use_bias": true, "activity_regularizer": null, "name": "conv2d_1", "trainable": true, "bias_constraint": null, "dilation_rate": [1, 1], "strides": [1, 1], "kernel_regularizer": null, "padding": "same", "data_format": "channels_first", "kernel_constraint": null, "activation": "linear", "bias_initializer": {"config": {}, "class_name": "Zeros"}, "bias_regularizer": null, "filters": 6, "kernel_size": [3, 3]}, "name": "conv2d_1", "class_name": "Conv2D", "inbound_nodes": [[["input_1", 0, 0, {}]]]}, {"config": {"moving_mean_initializer": {"config": {}, "class_name": "Zeros"}, "name": "batch_normalization_1", "beta_initializer": {"config": {}, "class_name": "Zeros"}, "scale": true, "trainable": true, "moving_variance_initializer": {"config": {}, "class_name": "Ones"}, "beta_constraint": null, "gamma_regularizer": null, "momentum": 0.99, "epsilon": 0.001, "beta_regularizer": null, "center": true, "gamma_constraint": null, "gamma_initializer": {"config": {}, "class_name": "Ones"}, "axis": 1}, "name": "batch_normalization_1", "class_name": "BatchNormalization", "inbound_nodes": [[["conv2d_1", 0, 0, {}]]]}, {"config": {"alpha": 1.0, "name": "elu_1", "trainable": true}, "name": "elu_1", "class_name": "ELU", "inbound_nodes": [[["batch_normalization_1", 0, 0, {}]]]}, {"config": {"kernel_initializer": {"config": {"seed": null, "scale": 2.0, "mode": "fan_in", "distribution": "uniform"}, "class_name": "VarianceScaling"}, "use_bias": true, "activity_regularizer": null, "name": "conv2d_2", "trainable": true, "bias_constraint": null, "dilation_rate": [1, 1], "strides": [1, 1], "kernel_regularizer": null, "padding": "same", "data_format": "channels_first", "kernel_constraint": null, "activation": "linear", "bias_initializer": {"config": {}, "class_name": "Zeros"}, "bias_regularizer": null, "filters": 6, "kernel_size": [3, 3]}, "name": "conv2d_2", "class_name": "Conv2D", "inbound_nodes": [[["elu_1", 0, 0, {}]]]}, {"config": {"moving_mean_initializer": {"config": {}, "class_name": "Zeros"}, "name": "batch_normalization_2", "beta_initializer": {"config": {}, "class_name": "Zeros"}, "scale": true, "trainable": true, "moving_variance_initializer": {"config": {}, "class_name": "Ones"}, "beta_constraint": null, "gamma_regularizer": null, "momentum": 0.99, "epsilon": 0.001, "beta_regularizer": null, "center": true, "gamma_constraint": null, "gamma_initializer": {"config": {}, "class_name": "Ones"}, "axis": 1}, "name": "batch_normalization_2", "class_name": "BatchNormalization", "inbound_nodes": [[["conv2d_2", 0, 0, {}]]]}, {"config": {"alpha": 1.0, "name": "elu_2", "trainable": true}, "name": "elu_2", "class_name": "ELU", "inbound_nodes": [[["batch_normalization_2", 0, 0, {}]]]}, {"config": {"padding": "valid", "name": "max_pooling2d_1", "data_format": "channels_first", "trainable": true, "pool_size": [2, 2], "strides": [2, 2]}, "name": "max_pooling2d_1", "class_name": "MaxPooling2D", "inbound_nodes": [[["elu_2", 0, 0, {}]]]}, {"config": {"kernel_initializer": {"config": {"seed": null, "scale": 2.0, "mode": "fan_in", "distribution": "uniform"}, "class_name": "VarianceScaling"}, "use_bias": true, "activity_regularizer": null, "name": "conv2d_3", "trainable": true, "bias_constraint": null, "dilation_rate": [1, 1], "strides": [1, 1], "kernel_regularizer": null, "padding": "same", "data_format": "channels_first", "kernel_constraint": null, "activation": "linear", "bias_initializer": {"config": {}, "class_name": "Zeros"}, "bias_regularizer": null, "filters": 12, "kernel_size": [3, 3]}, "name": "conv2d_3", "class_name": "Conv2D", "inbound_nodes": [[["max_pooling2d_1", 0, 0, {}]]]}, {"config": {"moving_mean_initializer": {"config": {}, "class_name": "Zeros"}, "name": "batch_normalization_3", "beta_initializer": {"config": {}, "class_name": "Zeros"}, "scale": true, "trainable": true, "moving_variance_initializer": {"config": {}, "class_name": "Ones"}, "beta_constraint": null, "gamma_regularizer": null, "momentum": 0.99, "epsilon": 0.001, "beta_regularizer": null, "center": true, "gamma_constraint": null, "gamma_initializer": {"config": {}, "class_name": "Ones"}, "axis": 1}, "name": "batch_normalization_3", "class_name": "BatchNormalization", "inbound_nodes": [[["conv2d_3", 0, 0, {}]]]}, {"config": {"alpha": 1.0, "name": "elu_3", "trainable": true}, "name": "elu_3", "class_name": "ELU", "inbound_nodes": [[["batch_normalization_3", 0, 0, {}]]]}, {"config": {"kernel_initializer": {"config": {"seed": null, "scale": 2.0, "mode": "fan_in", "distribution": "uniform"}, "class_name": "VarianceScaling"}, "use_bias": true, "activity_regularizer": null, "name": "conv2d_4", "trainable": true, "bias_constraint": null, "dilation_rate": [1, 1], "strides": [1, 1], "kernel_regularizer": null, "padding": "same", "data_format": "channels_first", "kernel_constraint": null, "activation": "linear", "bias_initializer": {"config": {}, "class_name": "Zeros"}, "bias_regularizer": null, "filters": 12, "kernel_size": [3, 3]}, "name": "conv2d_4", "class_name": "Conv2D", "inbound_nodes": [[["elu_3", 0, 0, {}]]]}, {"config": {"moving_mean_initializer": {"config": {}, "class_name": "Zeros"}, "name": "batch_normalization_4", "beta_initializer": {"config": {}, "class_name": "Zeros"}, "scale": true, "trainable": true, "moving_variance_initializer": {"config": {}, "class_name": "Ones"}, "beta_constraint": null, "gamma_regularizer": null, "momentum": 0.99, "epsilon": 0.001, "beta_regularizer": null, "center": true, "gamma_constraint": null, "gamma_initializer": {"config": {}, "class_name": "Ones"}, "axis": 1}, "name": "batch_normalization_4", "class_name": "BatchNormalization", "inbound_nodes": [[["conv2d_4", 0, 0, {}]]]}, {"config": {"alpha": 1.0, "name": "elu_4", "trainable": true}, "name": "elu_4", "class_name": "ELU", "inbound_nodes": [[["batch_normalization_4", 0, 0, {}]]]}, {"config": {"padding": "valid", "name": "max_pooling2d_2", "data_format": "channels_first", "trainable": true, "pool_size": [2, 2], "strides": [2, 2]}, "name": "max_pooling2d_2", "class_name": "MaxPooling2D", "inbound_nodes": [[["elu_4", 0, 0, {}]]]}, {"config": {"kernel_initializer": {"config": {"seed": null, "scale": 2.0, "mode": "fan_in", "distribution": "uniform"}, "class_name": "VarianceScaling"}, "use_bias": true, "activity_regularizer": null, "name": "conv2d_5", "trainable": true, "bias_constraint": null, "dilation_rate": [1, 1], "strides": [1, 1], "kernel_regularizer": null, "padding": "same", "data_format": "channels_first", "kernel_constraint": null, "activation": "linear", "bias_initializer": {"config": {}, "class_name": "Zeros"}, "bias_regularizer": null, "filters": 24, "kernel_size": [3, 3]}, "name": "conv2d_5", "class_name": "Conv2D", "inbound_nodes": [[["max_pooling2d_2", 0, 0, {}]]]}, {"config": {"moving_mean_initializer": {"config": {}, "class_name": "Zeros"}, "name": "batch_normalization_5", "beta_initializer": {"config": {}, "class_name": "Zeros"}, "scale": true, "trainable": true, "moving_variance_initializer": {"config": {}, "class_name": "Ones"}, "beta_constraint": null, "gamma_regularizer": null, "momentum": 0.99, "epsilon": 0.001, "beta_regularizer": null, "center": true, "gamma_constraint": null, "gamma_initializer": {"config": {}, "class_name": "Ones"}, "axis": 1}, "name": "batch_normalization_5", "class_name": "BatchNormalization", "inbound_nodes": [[["conv2d_5", 0, 0, {}]]]}, {"config": {"alpha": 1.0, "name": "elu_5", "trainable": true}, "name": "elu_5", "class_name": "ELU", "inbound_nodes": [[["batch_normalization_5", 0, 0, {}]]]}, {"config": {"kernel_initializer": {"config": {"seed": null, "scale": 2.0, "mode": "fan_in", "distribution": "uniform"}, "class_name": "VarianceScaling"}, "use_bias": true, "activity_regularizer": null, "name": "conv2d_6", "trainable": true, "bias_constraint": null, "dilation_rate": [1, 1], "strides": [1, 1], "kernel_regularizer": null, "padding": "same", "data_format": "channels_first", "kernel_constraint": null, "activation": "linear", "bias_initializer": {"config": {}, "class_name": "Zeros"}, "bias_regularizer": null, "filters": 24, "kernel_size": [3, 3]}, "name": "conv2d_6", "class_name": "Conv2D", "inbound_nodes": [[["elu_5", 0, 0, {}]]]}, {"config": {"moving_mean_initializer": {"config": {}, "class_name": "Zeros"}, "name": "batch_normalization_6", "beta_initializer": {"config": {}, "class_name": "Zeros"}, "scale": true, "trainable": true, "moving_variance_initializer": {"config": {}, "class_name": "Ones"}, "beta_constraint": null, "gamma_regularizer": null, "momentum": 0.99, "epsilon": 0.001, "beta_regularizer": null, "center": true, "gamma_constraint": null, "gamma_initializer": {"config": {}, "class_name": "Ones"}, "axis": 1}, "name": "batch_normalization_6", "class_name": "BatchNormalization", "inbound_nodes": [[["conv2d_6", 0, 0, {}]]]}, {"config": {"alpha": 1.0, "name": "elu_6", "trainable": true}, "name": "elu_6", "class_name": "ELU", "inbound_nodes": [[["batch_normalization_6", 0, 0, {}]]]}, {"config": {"padding": "valid", "name": "max_pooling2d_3", "data_format": "channels_first", "trainable": true, "pool_size": [2, 2], "strides": [2, 2]}, "name": "max_pooling2d_3", "class_name": "MaxPooling2D", "inbound_nodes": [[["elu_6", 0, 0, {}]]]}, {"config": {"kernel_initializer": {"config": {"seed": null, "scale": 2.0, "mode": "fan_in", "distribution": "uniform"}, "class_name": "VarianceScaling"}, "use_bias": true, "activity_regularizer": null, "name": "conv2d_7", "trainable": true, "bias_constraint": null, "dilation_rate": [1, 1], "strides": [1, 1], "kernel_regularizer": null, "padding": "same", "data_format": "channels_first", "kernel_constraint": null, "activation": "linear", "bias_initializer": {"config": {}, "class_name": "Zeros"}, "bias_regularizer": null, "filters": 48, "kernel_size": [3, 3]}, "name": "conv2d_7", "class_name": "Conv2D", "inbound_nodes": [[["max_pooling2d_3", 0, 0, {}]]]}, {"config": {"moving_mean_initializer": {"config": {}, "class_name": "Zeros"}, "name": "batch_normalization_7", "beta_initializer": {"config": {}, "class_name": "Zeros"}, "scale": true, "trainable": true, "moving_variance_initializer": {"config": {}, "class_name": "Ones"}, "beta_constraint": null, "gamma_regularizer": null, "momentum": 0.99, "epsilon": 0.001, "beta_regularizer": null, "center": true, "gamma_constraint": null, "gamma_initializer": {"config": {}, "class_name": "Ones"}, "axis": 1}, "name": "batch_normalization_7", "class_name": "BatchNormalization", "inbound_nodes": [[["conv2d_7", 0, 0, {}]]]}, {"config": {"alpha": 1.0, "name": "elu_7", "trainable": true}, "name": "elu_7", "class_name": "ELU", "inbound_nodes": [[["batch_normalization_7", 0, 0, {}]]]}, {"config": {"kernel_initializer": {"config": {"seed": null, "scale": 2.0, "mode": "fan_in", "distribution": "uniform"}, "class_name": "VarianceScaling"}, "use_bias": true, "activity_regularizer": null, "name": "conv2d_8", "trainable": true, "bias_constraint": null, "dilation_rate": [1, 1], "strides": [1, 1], "kernel_regularizer": null, "padding": "same", "data_format": "channels_first", "kernel_constraint": null, "activation": "linear", "bias_initializer": {"config": {}, "class_name": "Zeros"}, "bias_regularizer": null, "filters": 48, "kernel_size": [3, 3]}, "name": "conv2d_8", "class_name": "Conv2D", "inbound_nodes": [[["elu_7", 0, 0, {}]]]}, {"config": {"moving_mean_initializer": {"config": {}, "class_name": "Zeros"}, "name": "batch_normalization_8", "beta_initializer": {"config": {}, "class_name": "Zeros"}, "scale": true, "trainable": true, "moving_variance_initializer": {"config": {}, "class_name": "Ones"}, "beta_constraint": null, "gamma_regularizer": null, "momentum": 0.99, "epsilon": 0.001, "beta_regularizer": null, "center": true, "gamma_constraint": null, "gamma_initializer": {"config": {}, "class_name": "Ones"}, "axis": 1}, "name": "batch_normalization_8", "class_name": "BatchNormalization", "inbound_nodes": [[["conv2d_8", 0, 0, {}]]]}, {"config": {"alpha": 1.0, "name": "elu_8", "trainable": true}, "name": "elu_8", "class_name": "ELU", "inbound_nodes": [[["batch_normalization_8", 0, 0, {}]]]}, {"config": {"padding": "valid", "name": "max_pooling2d_4", "data_format": "channels_first", "trainable": true, "pool_size": [2, 2], "strides": [2, 2]}, "name": "max_pooling2d_4", "class_name": "MaxPooling2D", "inbound_nodes": [[["elu_8", 0, 0, {}]]]}, {"config": {"kernel_initializer": {"config": {"seed": null, "scale": 2.0, "mode": "fan_in", "distribution": "uniform"}, "class_name": "VarianceScaling"}, "use_bias": true, "activity_regularizer": null, "name": "conv2d_9", "trainable": true, "bias_constraint": null, "dilation_rate": [1, 1], "strides": [1, 1], "kernel_regularizer": null, "padding": "same", "data_format": "channels_first", "kernel_constraint": null, "activation": "linear", "bias_initializer": {"config": {}, "class_name": "Zeros"}, "bias_regularizer": null, "filters": 96, "kernel_size": [3, 3]}, "name": "conv2d_9", "class_name": "Conv2D", "inbound_nodes": [[["max_pooling2d_4", 0, 0, {}]]]}, {"config": {"moving_mean_initializer": {"config": {}, "class_name": "Zeros"}, "name": "batch_normalization_9", "beta_initializer": {"config": {}, "class_name": "Zeros"}, "scale": true, "trainable": true, "moving_variance_initializer": {"config": {}, "class_name": "Ones"}, "beta_constraint": null, "gamma_regularizer": null, "momentum": 0.99, "epsilon": 0.001, "beta_regularizer": null, "center": true, "gamma_constraint": null, "gamma_initializer": {"config": {}, "class_name": "Ones"}, "axis": 1}, "name": "batch_normalization_9", "class_name": "BatchNormalization", "inbound_nodes": [[["conv2d_9", 0, 0, {}]]]}, {"config": {"alpha": 1.0, "name": "elu_9", "trainable": true}, "name": "elu_9", "class_name": "ELU", "inbound_nodes": [[["batch_normalization_9", 0, 0, {}]]]}, {"config": {"kernel_initializer": {"config": {"seed": null, "scale": 2.0, "mode": "fan_in", "distribution": "uniform"}, "class_name": "VarianceScaling"}, "use_bias": true, "activity_regularizer": null, "name": "conv2d_10", "trainable": true, "bias_constraint": null, "dilation_rate": [1, 1], "strides": [1, 1], "kernel_regularizer": null, "padding": "same", "data_format": "channels_first", "kernel_constraint": null, "activation": "linear", "bias_initializer": {"config": {}, "class_name": "Zeros"}, "bias_regularizer": null, "filters": 96, "kernel_size": [3, 3]}, "name": "conv2d_10", "class_name": "Conv2D", "inbound_nodes": [[["elu_9", 0, 0, {}]]]}, {"config": {"moving_mean_initializer": {"config": {}, "class_name": "Zeros"}, "name": "batch_normalization_10", "beta_initializer": {"config": {}, "class_name": "Zeros"}, "scale": true, "trainable": true, "moving_variance_initializer": {"config": {}, "class_name": "Ones"}, "beta_constraint": null, "gamma_regularizer": null, "momentum": 0.99, "epsilon": 0.001, "beta_regularizer": null, "center": true, "gamma_constraint": null, "gamma_initializer": {"config": {}, "class_name": "Ones"}, "axis": 1}, "name": "batch_normalization_10", "class_name": "BatchNormalization", "inbound_nodes": [[["conv2d_10", 0, 0, {}]]]}, {"config": {"alpha": 1.0, "name": "elu_10", "trainable": true}, "name": "elu_10", "class_name": "ELU", "inbound_nodes": [[["batch_normalization_10", 0, 0, {}]]]}, {"config": {"name": "up_sampling2d_1", "size": [2, 2], "trainable": true, "data_format": "channels_first"}, "name": "up_sampling2d_1", "class_name": "UpSampling2D", "inbound_nodes": [[["elu_10", 0, 0, {}]]]}, {"config": {"arguments": {}, "output_shape_type": "raw", "name": "merge_1", "mode_type": "raw", "mode": "concat", "concat_axis": 1, "output_shape": null, "output_mask_type": "raw", "dot_axes": -1, "output_mask": null}, "name": "merge_1", "class_name": "Merge", "inbound_nodes": [[["up_sampling2d_1", 0, 0, {"mask": [null, null]}], ["elu_8", 0, 0, {"mask": [null, null]}]]]}, {"config": {"kernel_initializer": {"config": {"seed": null, "scale": 2.0, "mode": "fan_in", "distribution": "uniform"}, "class_name": "VarianceScaling"}, "use_bias": true, "activity_regularizer": null, "name": "conv2d_11", "trainable": true, "bias_constraint": null, "dilation_rate": [1, 1], "strides": [1, 1], "kernel_regularizer": null, "padding": "same", "data_format": "channels_first", "kernel_constraint": null, "activation": "linear", "bias_initializer": {"config": {}, "class_name": "Zeros"}, "bias_regularizer": null, "filters": 48, "kernel_size": [3, 3]}, "name": "conv2d_11", "class_name": "Conv2D", "inbound_nodes": [[["merge_1", 0, 0, {}]]]}, {"config": {"moving_mean_initializer": {"config": {}, "class_name": "Zeros"}, "name": "batch_normalization_11", "beta_initializer": {"config": {}, "class_name": "Zeros"}, "scale": true, "trainable": true, "moving_variance_initializer": {"config": {}, "class_name": "Ones"}, "beta_constraint": null, "gamma_regularizer": null, "momentum": 0.99, "epsilon": 0.001, "beta_regularizer": null, "center": true, "gamma_constraint": null, "gamma_initializer": {"config": {}, "class_name": "Ones"}, "axis": 1}, "name": "batch_normalization_11", "class_name": "BatchNormalization", "inbound_nodes": [[["conv2d_11", 0, 0, {}]]]}, {"config": {"alpha": 1.0, "name": "elu_11", "trainable": true}, "name": "elu_11", "class_name": "ELU", "inbound_nodes": [[["batch_normalization_11", 0, 0, {}]]]}, {"config": {"kernel_initializer": {"config": {"seed": null, "scale": 2.0, "mode": "fan_in", "distribution": "uniform"}, "class_name": "VarianceScaling"}, "use_bias": true, "activity_regularizer": null, "name": "conv2d_12", "trainable": true, "bias_constraint": null, "dilation_rate": [1, 1], "strides": [1, 1], "kernel_regularizer": null, "padding": "same", "data_format": "channels_first", "kernel_constraint": null, "activation": "linear", "bias_initializer": {"config": {}, "class_name": "Zeros"}, "bias_regularizer": null, "filters": 48, "kernel_size": [3, 3]}, "name": "conv2d_12", "class_name": "Conv2D", "inbound_nodes": [[["elu_11", 0, 0, {}]]]}, {"config": {"moving_mean_initializer": {"config": {}, "class_name": "Zeros"}, "name": "batch_normalization_12", "beta_initializer": {"config": {}, "class_name": "Zeros"}, "scale": true, "trainable": true, "moving_variance_initializer": {"config": {}, "class_name": "Ones"}, "beta_constraint": null, "gamma_regularizer": null, "momentum": 0.99, "epsilon": 0.001, "beta_regularizer": null, "center": true, "gamma_constraint": null, "gamma_initializer": {"config": {}, "class_name": "Ones"}, "axis": 1}, "name": "batch_normalization_12", "class_name": "BatchNormalization", "inbound_nodes": [[["conv2d_12", 0, 0, {}]]]}, {"config": {"alpha": 1.0, "name": "elu_12", "trainable": true}, "name": "elu_12", "class_name": "ELU", "inbound_nodes": [[["batch_normalization_12", 0, 0, {}]]]}, {"config": {"name": "up_sampling2d_2", "size": [2, 2], "trainable": true, "data_format": "channels_first"}, "name": "up_sampling2d_2", "class_name": "UpSampling2D", "inbound_nodes": [[["elu_12", 0, 0, {}]]]}, {"config": {"arguments": {}, "output_shape_type": "raw", "name": "merge_2", "mode_type": "raw", "mode": "concat", "concat_axis": 1, "output_shape": null, "output_mask_type": "raw", "dot_axes": -1, "output_mask": null}, "name": "merge_2", "class_name": "Merge", "inbound_nodes": [[["up_sampling2d_2", 0, 0, {"mask": [null, null]}], ["elu_6", 0, 0, {"mask": [null, null]}]]]}, {"config": {"kernel_initializer": {"config": {"seed": null, "scale": 2.0, "mode": "fan_in", "distribution": "uniform"}, "class_name": "VarianceScaling"}, "use_bias": true, "activity_regularizer": null, "name": "conv2d_13", "trainable": true, "bias_constraint": null, "dilation_rate": [1, 1], "strides": [1, 1], "kernel_regularizer": null, "padding": "same", "data_format": "channels_first", "kernel_constraint": null, "activation": "linear", "bias_initializer": {"config": {}, "class_name": "Zeros"}, "bias_regularizer": null, "filters": 24, "kernel_size": [3, 3]}, "name": "conv2d_13", "class_name": "Conv2D", "inbound_nodes": [[["merge_2", 0, 0, {}]]]}, {"config": {"moving_mean_initializer": {"config": {}, "class_name": "Zeros"}, "name": "batch_normalization_13", "beta_initializer": {"config": {}, "class_name": "Zeros"}, "scale": true, "trainable": true, "moving_variance_initializer": {"config": {}, "class_name": "Ones"}, "beta_constraint": null, "gamma_regularizer": null, "momentum": 0.99, "epsilon": 0.001, "beta_regularizer": null, "center": true, "gamma_constraint": null, "gamma_initializer": {"config": {}, "class_name": "Ones"}, "axis": 1}, "name": "batch_normalization_13", "class_name": "BatchNormalization", "inbound_nodes": [[["conv2d_13", 0, 0, {}]]]}, {"config": {"alpha": 1.0, "name": "elu_13", "trainable": true}, "name": "elu_13", "class_name": "ELU", "inbound_nodes": [[["batch_normalization_13", 0, 0, {}]]]}, {"config": {"kernel_initializer": {"config": {"seed": null, "scale": 2.0, "mode": "fan_in", "distribution": "uniform"}, "class_name": "VarianceScaling"}, "use_bias": true, "activity_regularizer": null, "name": "conv2d_14", "trainable": true, "bias_constraint": null, "dilation_rate": [1, 1], "strides": [1, 1], "kernel_regularizer": null, "padding": "same", "data_format": "channels_first", "kernel_constraint": null, "activation": "linear", "bias_initializer": {"config": {}, "class_name": "Zeros"}, "bias_regularizer": null, "filters": 24, "kernel_size": [3, 3]}, "name": "conv2d_14", "class_name": "Conv2D", "inbound_nodes": [[["elu_13", 0, 0, {}]]]}, {"config": {"moving_mean_initializer": {"config": {}, "class_name": "Zeros"}, "name": "batch_normalization_14", "beta_initializer": {"config": {}, "class_name": "Zeros"}, "scale": true, "trainable": true, "moving_variance_initializer": {"config": {}, "class_name": "Ones"}, "beta_constraint": null, "gamma_regularizer": null, "momentum": 0.99, "epsilon": 0.001, "beta_regularizer": null, "center": true, "gamma_constraint": null, "gamma_initializer": {"config": {}, "class_name": "Ones"}, "axis": 1}, "name": "batch_normalization_14", "class_name": "BatchNormalization", "inbound_nodes": [[["conv2d_14", 0, 0, {}]]]}, {"config": {"alpha": 1.0, "name": "elu_14", "trainable": true}, "name": "elu_14", "class_name": "ELU", "inbound_nodes": [[["batch_normalization_14", 0, 0, {}]]]}, {"config": {"name": "up_sampling2d_3", "size": [2, 2], "trainable": true, "data_format": "channels_first"}, "name": "up_sampling2d_3", "class_name": "UpSampling2D", "inbound_nodes": [[["elu_14", 0, 0, {}]]]}, {"config": {"arguments": {}, "output_shape_type": "raw", "name": "merge_3", "mode_type": "raw", "mode": "concat", "concat_axis": 1, "output_shape": null, "output_mask_type": "raw", "dot_axes": -1, "output_mask": null}, "name": "merge_3", "class_name": "Merge", "inbound_nodes": [[["up_sampling2d_3", 0, 0, {"mask": [null, null]}], ["elu_4", 0, 0, {"mask": [null, null]}]]]}, {"config": {"kernel_initializer": {"config": {"seed": null, "scale": 2.0, "mode": "fan_in", "distribution": "uniform"}, "class_name": "VarianceScaling"}, "use_bias": true, "activity_regularizer": null, "name": "conv2d_15", "trainable": true, "bias_constraint": null, "dilation_rate": [1, 1], "strides": [1, 1], "kernel_regularizer": null, "padding": "same", "data_format": "channels_first", "kernel_constraint": null, "activation": "linear", "bias_initializer": {"config": {}, "class_name": "Zeros"}, "bias_regularizer": null, "filters": 12, "kernel_size": [3, 3]}, "name": "conv2d_15", "class_name": "Conv2D", "inbound_nodes": [[["merge_3", 0, 0, {}]]]}, {"config": {"moving_mean_initializer": {"config": {}, "class_name": "Zeros"}, "name": "batch_normalization_15", "beta_initializer": {"config": {}, "class_name": "Zeros"}, "scale": true, "trainable": true, "moving_variance_initializer": {"config": {}, "class_name": "Ones"}, "beta_constraint": null, "gamma_regularizer": null, "momentum": 0.99, "epsilon": 0.001, "beta_regularizer": null, "center": true, "gamma_constraint": null, "gamma_initializer": {"config": {}, "class_name": "Ones"}, "axis": 1}, "name": "batch_normalization_15", "class_name": "BatchNormalization", "inbound_nodes": [[["conv2d_15", 0, 0, {}]]]}, {"config": {"alpha": 1.0, "name": "elu_15", "trainable": true}, "name": "elu_15", "class_name": "ELU", "inbound_nodes": [[["batch_normalization_15", 0, 0, {}]]]}, {"config": {"kernel_initializer": {"config": {"seed": null, "scale": 2.0, "mode": "fan_in", "distribution": "uniform"}, "class_name": "VarianceScaling"}, "use_bias": true, "activity_regularizer": null, "name": "conv2d_16", "trainable": true, "bias_constraint": null, "dilation_rate": [1, 1], "strides": [1, 1], "kernel_regularizer": null, "padding": "same", "data_format": "channels_first", "kernel_constraint": null, "activation": "linear", "bias_initializer": {"config": {}, "class_name": "Zeros"}, "bias_regularizer": null, "filters": 12, "kernel_size": [3, 3]}, "name": "conv2d_16", "class_name": "Conv2D", "inbound_nodes": [[["elu_15", 0, 0, {}]]]}, {"config": {"moving_mean_initializer": {"config": {}, "class_name": "Zeros"}, "name": "batch_normalization_16", "beta_initializer": {"config": {}, "class_name": "Zeros"}, "scale": true, "trainable": true, "moving_variance_initializer": {"config": {}, "class_name": "Ones"}, "beta_constraint": null, "gamma_regularizer": null, "momentum": 0.99, "epsilon": 0.001, "beta_regularizer": null, "center": true, "gamma_constraint": null, "gamma_initializer": {"config": {}, "class_name": "Ones"}, "axis": 1}, "name": "batch_normalization_16", "class_name": "BatchNormalization", "inbound_nodes": [[["conv2d_16", 0, 0, {}]]]}, {"config": {"alpha": 1.0, "name": "elu_16", "trainable": true}, "name": "elu_16", "class_name": "ELU", "inbound_nodes": [[["batch_normalization_16", 0, 0, {}]]]}, {"config": {"name": "up_sampling2d_4", "size": [2, 2], "trainable": true, "data_format": "channels_first"}, "name": "up_sampling2d_4", "class_name": "UpSampling2D", "inbound_nodes": [[["elu_16", 0, 0, {}]]]}, {"config": {"arguments": {}, "output_shape_type": "raw", "name": "merge_4", "mode_type": "raw", "mode": "concat", "concat_axis": 1, "output_shape": null, "output_mask_type": "raw", "dot_axes": -1, "output_mask": null}, "name": "merge_4", "class_name": "Merge", "inbound_nodes": [[["up_sampling2d_4", 0, 0, {"mask": [null, null]}], ["elu_2", 0, 0, {"mask": [null, null]}]]]}, {"config": {"kernel_initializer": {"config": {"seed": null, "scale": 2.0, "mode": "fan_in", "distribution": "uniform"}, "class_name": "VarianceScaling"}, "use_bias": true, "activity_regularizer": null, "name": "conv2d_17", "trainable": true, "bias_constraint": null, "dilation_rate": [1, 1], "strides": [1, 1], "kernel_regularizer": null, "padding": "same", "data_format": "channels_first", "kernel_constraint": null, "activation": "linear", "bias_initializer": {"config": {}, "class_name": "Zeros"}, "bias_regularizer": null, "filters": 6, "kernel_size": [3, 3]}, "name": "conv2d_17", "class_name": "Conv2D", "inbound_nodes": [[["merge_4", 0, 0, {}]]]}, {"config": {"moving_mean_initializer": {"config": {}, "class_name": "Zeros"}, "name": "batch_normalization_17", "beta_initializer": {"config": {}, "class_name": "Zeros"}, "scale": true, "trainable": true, "moving_variance_initializer": {"config": {}, "class_name": "Ones"}, "beta_constraint": null, "gamma_regularizer": null, "momentum": 0.99, "epsilon": 0.001, "beta_regularizer": null, "center": true, "gamma_constraint": null, "gamma_initializer": {"config": {}, "class_name": "Ones"}, "axis": 1}, "name": "batch_normalization_17", "class_name": "BatchNormalization", "inbound_nodes": [[["conv2d_17", 0, 0, {}]]]}, {"config": {"alpha": 1.0, "name": "elu_17", "trainable": true}, "name": "elu_17", "class_name": "ELU", "inbound_nodes": [[["batch_normalization_17", 0, 0, {}]]]}, {"config": {"kernel_initializer": {"config": {"seed": null, "scale": 2.0, "mode": "fan_in", "distribution": "uniform"}, "class_name": "VarianceScaling"}, "use_bias": true, "activity_regularizer": null, "name": "conv2d_18", "trainable": true, "bias_constraint": null, "dilation_rate": [1, 1], "strides": [1, 1], "kernel_regularizer": null, "padding": "same", "data_format": "channels_first", "kernel_constraint": null, "activation": "linear", "bias_initializer": {"config": {}, "class_name": "Zeros"}, "bias_regularizer": null, "filters": 6, "kernel_size": [3, 3]}, "name": "conv2d_18", "class_name": "Conv2D", "inbound_nodes": [[["elu_17", 0, 0, {}]]]}, {"config": {"cropping": [[16, 16], [16, 16]], "name": "cropping2d_1", "data_format": "channels_first", "trainable": true}, "name": "cropping2d_1", "class_name": "Cropping2D", "inbound_nodes": [[["conv2d_18", 0, 0, {}]]]}, {"config": {"moving_mean_initializer": {"config": {}, "class_name": "Zeros"}, "name": "batch_normalization_18", "beta_initializer": {"config": {}, "class_name": "Zeros"}, "scale": true, "trainable": true, "moving_variance_initializer": {"config": {}, "class_name": "Ones"}, "beta_constraint": null, "gamma_regularizer": null, "momentum": 0.99, "epsilon": 0.001, "beta_regularizer": null, "center": true, "gamma_constraint": null, "gamma_initializer": {"config": {}, "class_name": "Ones"}, "axis": 1}, "name": "batch_normalization_18", "class_name": "BatchNormalization", "inbound_nodes": [[["cropping2d_1", 0, 0, {}]]]}, {"config": {"alpha": 1.0, "name": "elu_18", "trainable": true}, "name": "elu_18", "class_name": "ELU", "inbound_nodes": [[["batch_normalization_18", 0, 0, {}]]]}, {"config": {"kernel_initializer": {"config": {"seed": null, "scale": 1.0, "mode": "fan_avg", "distribution": "uniform"}, "class_name": "VarianceScaling"}, "use_bias": true, "activity_regularizer": null, "name": "conv2d_19", "trainable": true, "bias_constraint": null, "dilation_rate": [1, 1], "strides": [1, 1], "kernel_regularizer": null, "padding": "valid", "data_format": "channels_first", "kernel_constraint": null, "activation": "sigmoid", "bias_initializer": {"config": {}, "class_name": "Zeros"}, "bias_regularizer": null, "filters": 1, "kernel_size": [1, 1]}, "name": "conv2d_19", "class_name": "Conv2D", "inbound_nodes": [[["elu_18", 0, 0, {}]]]}]}, "backend": "tensorflow", "class_name": "Model"}