{"keras_version": "2.1.5", "config": {"name": "model_1", "layers": [{"name": "input_1", "inbound_nodes": [], "config": {"dtype": "float32", "batch_input_shape": [null, 3, 112, 112], "name": "input_1", "sparse": false}, "class_name": "InputLayer"}, {"name": "conv2d_2", "inbound_nodes": [[["input_1", 0, 0, {}]]], "config": {"dilation_rate": [1, 1], "use_bias": true, "activation": "linear", "padding": "same", "bias_constraint": null, "activity_regularizer": null, "name": "conv2d_2", "kernel_size": [3, 3], "strides": [1, 1], "bias_initializer": {"config": {}, "class_name": "Zeros"}, "kernel_initializer": {"config": {"seed": null, "scale": 2.0, "distribution": "uniform", "mode": "fan_in"}, "class_name": "VarianceScaling"}, "kernel_constraint": null, "kernel_regularizer": null, "data_format": "channels_first", "filters": 12, "trainable": true, "bias_regularizer": null}, "class_name": "Conv2D"}, {"name": "batch_normalization_1", "inbound_nodes": [[["conv2d_2", 0, 0, {}]]], "config": {"axis": 1, "epsilon": 0.001, "beta_constraint": null, "scale": true, "beta_regularizer": null, "gamma_regularizer": null, "beta_initializer": {"config": {}, "class_name": "Zeros"}, "center": true, "moving_variance_initializer": {"config": {}, "class_name": "Ones"}, "name": "batch_normalization_1", "moving_mean_initializer": {"config": {}, "class_name": "Zeros"}, "gamma_initializer": {"config": {}, "class_name": "Ones"}, "gamma_constraint": null, "trainable": true, "momentum": 0.99}, "class_name": "BatchNormalization"}, {"name": "elu_1", "inbound_nodes": [[["batch_normalization_1", 0, 0, {}]]], "config": {"name": "elu_1", "trainable": true, "alpha": 1.0}, "class_name": "ELU"}, {"name": "conv2d_3", "inbound_nodes": [[["elu_1", 0, 0, {}]]], "config": {"dilation_rate": [1, 1], "use_bias": true, "activation": "linear", "padding": "same", "bias_constraint": null, "activity_regularizer": null, "name": "conv2d_3", "kernel_size": [3, 3], "strides": [1, 1], "bias_initializer": {"config": {}, "class_name": "Zeros"}, "kernel_initializer": {"config": {"seed": null, "scale": 2.0, "distribution": "uniform", "mode": "fan_in"}, "class_name": "VarianceScaling"}, "kernel_constraint": null, "kernel_regularizer": null, "data_format": "channels_first", "filters": 12, "trainable": true, "bias_regularizer": null}, "class_name": "Conv2D"}, {"name": "batch_normalization_2", "inbound_nodes": [[["conv2d_3", 0, 0, {}]]], "config": {"axis": 1, "epsilon": 0.001, "beta_constraint": null, "scale": true, "beta_regularizer": null, "gamma_regularizer": null, "beta_initializer": {"config": {}, "class_name": "Zeros"}, "center": true, "moving_variance_initializer": {"config": {}, "class_name": "Ones"}, "name": "batch_normalization_2", "moving_mean_initializer": {"config": {}, "class_name": "Zeros"}, "gamma_initializer": {"config": {}, "class_name": "Ones"}, "gamma_constraint": null, "trainable": true, "momentum": 0.99}, "class_name": "BatchNormalization"}, {"name": "conv2d_1", "inbound_nodes": [[["input_1", 0, 0, {}]]], "config": {"dilation_rate": [1, 1], "use_bias": true, "activation": "linear", "padding": "same", "bias_constraint": null, "activity_regularizer": null, "name": "conv2d_1", "kernel_size": [1, 1], "strides": [1, 1], "bias_initializer": {"config": {}, "class_name": "Zeros"}, "kernel_initializer": {"config": {"seed": null, "scale": 2.0, "distribution": "uniform", "mode": "fan_in"}, "class_name": "VarianceScaling"}, "kernel_constraint": null, "kernel_regularizer": null, "data_format": "channels_first", "filters": 12, "trainable": true, "bias_regularizer": null}, "class_name": "Conv2D"}, {"name": "add_1", "inbound_nodes": [[["batch_normalization_2", 0, 0, {}], ["conv2d_1", 0, 0, {}]]], "config": {"name": "add_1", "trainable": true}, "class_name": "Add"}, {"name": "elu_2", "inbound_nodes": [[["add_1", 0, 0, {}]]], "config": {"name": "elu_2", "trainable": true, "alpha": 1.0}, "class_name": "ELU"}, {"name": "max_pooling2d_1", "inbound_nodes": [[["elu_2", 0, 0, {}]]], "config": {"data_format": "channels_first", "strides": [2, 2], "pool_size": [2, 2], "padding": "valid", "name": "max_pooling2d_1", "trainable": true}, "class_name": "MaxPooling2D"}, {"name": "conv2d_5", "inbound_nodes": [[["max_pooling2d_1", 0, 0, {}]]], "config": {"dilation_rate": [1, 1], "use_bias": true, "activation": "linear", "padding": "same", "bias_constraint": null, "activity_regularizer": null, "name": "conv2d_5", "kernel_size": [3, 3], "strides": [1, 1], "bias_initializer": {"config": {}, "class_name": "Zeros"}, "kernel_initializer": {"config": {"seed": null, "scale": 2.0, "distribution": "uniform", "mode": "fan_in"}, "class_name": "VarianceScaling"}, "kernel_constraint": null, "kernel_regularizer": null, "data_format": "channels_first", "filters": 24, "trainable": true, "bias_regularizer": null}, "class_name": "Conv2D"}, {"name": "batch_normalization_3", "inbound_nodes": [[["conv2d_5", 0, 0, {}]]], "config": {"axis": 1, "epsilon": 0.001, "beta_constraint": null, "scale": true, "beta_regularizer": null, "gamma_regularizer": null, "beta_initializer": {"config": {}, "class_name": "Zeros"}, "center": true, "moving_variance_initializer": {"config": {}, "class_name": "Ones"}, "name": "batch_normalization_3", "moving_mean_initializer": {"config": {}, "class_name": "Zeros"}, "gamma_initializer": {"config": {}, "class_name": "Ones"}, "gamma_constraint": null, "trainable": true, "momentum": 0.99}, "class_name": "BatchNormalization"}, {"name": "elu_3", "inbound_nodes": [[["batch_normalization_3", 0, 0, {}]]], "config": {"name": "elu_3", "trainable": true, "alpha": 1.0}, "class_name": "ELU"}, {"name": "conv2d_6", "inbound_nodes": [[["elu_3", 0, 0, {}]]], "config": {"dilation_rate": [1, 1], "use_bias": true, "activation": "linear", "padding": "same", "bias_constraint": null, "activity_regularizer": null, "name": "conv2d_6", "kernel_size": [3, 3], "strides": [1, 1], "bias_initializer": {"config": {}, "class_name": "Zeros"}, "kernel_initializer": {"config": {"seed": null, "scale": 2.0, "distribution": "uniform", "mode": "fan_in"}, "class_name": "VarianceScaling"}, "kernel_constraint": null, "kernel_regularizer": null, "data_format": "channels_first", "filters": 24, "trainable": true, "bias_regularizer": null}, "class_name": "Conv2D"}, {"name": "batch_normalization_4", "inbound_nodes": [[["conv2d_6", 0, 0, {}]]], "config": {"axis": 1, "epsilon": 0.001, "beta_constraint": null, "scale": true, "beta_regularizer": null, "gamma_regularizer": null, "beta_initializer": {"config": {}, "class_name": "Zeros"}, "center": true, "moving_variance_initializer": {"config": {}, "class_name": "Ones"}, "name": "batch_normalization_4", "moving_mean_initializer": {"config": {}, "class_name": "Zeros"}, "gamma_initializer": {"config": {}, "class_name": "Ones"}, "gamma_constraint": null, "trainable": true, "momentum": 0.99}, "class_name": "BatchNormalization"}, {"name": "conv2d_4", "inbound_nodes": [[["max_pooling2d_1", 0, 0, {}]]], "config": {"dilation_rate": [1, 1], "use_bias": true, "activation": "linear", "padding": "same", "bias_constraint": null, "activity_regularizer": null, "name": "conv2d_4", "kernel_size": [1, 1], "strides": [1, 1], "bias_initializer": {"config": {}, "class_name": "Zeros"}, "kernel_initializer": {"config": {"seed": null, "scale": 2.0, "distribution": "uniform", "mode": "fan_in"}, "class_name": "VarianceScaling"}, "kernel_constraint": null, "kernel_regularizer": null, "data_format": "channels_first", "filters": 24, "trainable": true, "bias_regularizer": null}, "class_name": "Conv2D"}, {"name": "add_2", "inbound_nodes": [[["batch_normalization_4", 0, 0, {}], ["conv2d_4", 0, 0, {}]]], "config": {"name": "add_2", "trainable": true}, "class_name": "Add"}, {"name": "elu_4", "inbound_nodes": [[["add_2", 0, 0, {}]]], "config": {"name": "elu_4", "trainable": true, "alpha": 1.0}, "class_name": "ELU"}, {"name": "max_pooling2d_2", "inbound_nodes": [[["elu_4", 0, 0, {}]]], "config": {"data_format": "channels_first", "strides": [2, 2], "pool_size": [2, 2], "padding": "valid", "name": "max_pooling2d_2", "trainable": true}, "class_name": "MaxPooling2D"}, {"name": "conv2d_8", "inbound_nodes": [[["max_pooling2d_2", 0, 0, {}]]], "config": {"dilation_rate": [1, 1], "use_bias": true, "activation": "linear", "padding": "same", "bias_constraint": null, "activity_regularizer": null, "name": "conv2d_8", "kernel_size": [3, 3], "strides": [1, 1], "bias_initializer": {"config": {}, "class_name": "Zeros"}, "kernel_initializer": {"config": {"seed": null, "scale": 2.0, "distribution": "uniform", "mode": "fan_in"}, "class_name": "VarianceScaling"}, "kernel_constraint": null, "kernel_regularizer": null, "data_format": "channels_first", "filters": 48, "trainable": true, "bias_regularizer": null}, "class_name": "Conv2D"}, {"name": "batch_normalization_5", "inbound_nodes": [[["conv2d_8", 0, 0, {}]]], "config": {"axis": 1, "epsilon": 0.001, "beta_constraint": null, "scale": true, "beta_regularizer": null, "gamma_regularizer": null, "beta_initializer": {"config": {}, "class_name": "Zeros"}, "center": true, "moving_variance_initializer": {"config": {}, "class_name": "Ones"}, "name": "batch_normalization_5", "moving_mean_initializer": {"config": {}, "class_name": "Zeros"}, "gamma_initializer": {"config": {}, "class_name": "Ones"}, "gamma_constraint": null, "trainable": true, "momentum": 0.99}, "class_name": "BatchNormalization"}, {"name": "elu_5", "inbound_nodes": [[["batch_normalization_5", 0, 0, {}]]], "config": {"name": "elu_5", "trainable": true, "alpha": 1.0}, "class_name": "ELU"}, {"name": "conv2d_9", "inbound_nodes": [[["elu_5", 0, 0, {}]]], "config": {"dilation_rate": [1, 1], "use_bias": true, "activation": "linear", "padding": "same", "bias_constraint": null, "activity_regularizer": null, "name": "conv2d_9", "kernel_size": [3, 3], "strides": [1, 1], "bias_initializer": {"config": {}, "class_name": "Zeros"}, "kernel_initializer": {"config": {"seed": null, "scale": 2.0, "distribution": "uniform", "mode": "fan_in"}, "class_name": "VarianceScaling"}, "kernel_constraint": null, "kernel_regularizer": null, "data_format": "channels_first", "filters": 48, "trainable": true, "bias_regularizer": null}, "class_name": "Conv2D"}, {"name": "batch_normalization_6", "inbound_nodes": [[["conv2d_9", 0, 0, {}]]], "config": {"axis": 1, "epsilon": 0.001, "beta_constraint": null, "scale": true, "beta_regularizer": null, "gamma_regularizer": null, "beta_initializer": {"config": {}, "class_name": "Zeros"}, "center": true, "moving_variance_initializer": {"config": {}, "class_name": "Ones"}, "name": "batch_normalization_6", "moving_mean_initializer": {"config": {}, "class_name": "Zeros"}, "gamma_initializer": {"config": {}, "class_name": "Ones"}, "gamma_constraint": null, "trainable": true, "momentum": 0.99}, "class_name": "BatchNormalization"}, {"name": "conv2d_7", "inbound_nodes": [[["max_pooling2d_2", 0, 0, {}]]], "config": {"dilation_rate": [1, 1], "use_bias": true, "activation": "linear", "padding": "same", "bias_constraint": null, "activity_regularizer": null, "name": "conv2d_7", "kernel_size": [1, 1], "strides": [1, 1], "bias_initializer": {"config": {}, "class_name": "Zeros"}, "kernel_initializer": {"config": {"seed": null, "scale": 2.0, "distribution": "uniform", "mode": "fan_in"}, "class_name": "VarianceScaling"}, "kernel_constraint": null, "kernel_regularizer": null, "data_format": "channels_first", "filters": 48, "trainable": true, "bias_regularizer": null}, "class_name": "Conv2D"}, {"name": "add_3", "inbound_nodes": [[["batch_normalization_6", 0, 0, {}], ["conv2d_7", 0, 0, {}]]], "config": {"name": "add_3", "trainable": true}, "class_name": "Add"}, {"name": "elu_6", "inbound_nodes": [[["add_3", 0, 0, {}]]], "config": {"name": "elu_6", "trainable": true, "alpha": 1.0}, "class_name": "ELU"}, {"name": "max_pooling2d_3", "inbound_nodes": [[["elu_6", 0, 0, {}]]], "config": {"data_format": "channels_first", "strides": [2, 2], "pool_size": [2, 2], "padding": "valid", "name": "max_pooling2d_3", "trainable": true}, "class_name": "MaxPooling2D"}, {"name": "conv2d_11", "inbound_nodes": [[["max_pooling2d_3", 0, 0, {}]]], "config": {"dilation_rate": [1, 1], "use_bias": true, "activation": "linear", "padding": "same", "bias_constraint": null, "activity_regularizer": null, "name": "conv2d_11", "kernel_size": [3, 3], "strides": [1, 1], "bias_initializer": {"config": {}, "class_name": "Zeros"}, "kernel_initializer": {"config": {"seed": null, "scale": 2.0, "distribution": "uniform", "mode": "fan_in"}, "class_name": "VarianceScaling"}, "kernel_constraint": null, "kernel_regularizer": null, "data_format": "channels_first", "filters": 96, "trainable": true, "bias_regularizer": null}, "class_name": "Conv2D"}, {"name": "batch_normalization_7", "inbound_nodes": [[["conv2d_11", 0, 0, {}]]], "config": {"axis": 1, "epsilon": 0.001, "beta_constraint": null, "scale": true, "beta_regularizer": null, "gamma_regularizer": null, "beta_initializer": {"config": {}, "class_name": "Zeros"}, "center": true, "moving_variance_initializer": {"config": {}, "class_name": "Ones"}, "name": "batch_normalization_7", "moving_mean_initializer": {"config": {}, "class_name": "Zeros"}, "gamma_initializer": {"config": {}, "class_name": "Ones"}, "gamma_constraint": null, "trainable": true, "momentum": 0.99}, "class_name": "BatchNormalization"}, {"name": "elu_7", "inbound_nodes": [[["batch_normalization_7", 0, 0, {}]]], "config": {"name": "elu_7", "trainable": true, "alpha": 1.0}, "class_name": "ELU"}, {"name": "conv2d_12", "inbound_nodes": [[["elu_7", 0, 0, {}]]], "config": {"dilation_rate": [1, 1], "use_bias": true, "activation": "linear", "padding": "same", "bias_constraint": null, "activity_regularizer": null, "name": "conv2d_12", "kernel_size": [3, 3], "strides": [1, 1], "bias_initializer": {"config": {}, "class_name": "Zeros"}, "kernel_initializer": {"config": {"seed": null, "scale": 2.0, "distribution": "uniform", "mode": "fan_in"}, "class_name": "VarianceScaling"}, "kernel_constraint": null, "kernel_regularizer": null, "data_format": "channels_first", "filters": 96, "trainable": true, "bias_regularizer": null}, "class_name": "Conv2D"}, {"name": "batch_normalization_8", "inbound_nodes": [[["conv2d_12", 0, 0, {}]]], "config": {"axis": 1, "epsilon": 0.001, "beta_constraint": null, "scale": true, "beta_regularizer": null, "gamma_regularizer": null, "beta_initializer": {"config": {}, "class_name": "Zeros"}, "center": true, "moving_variance_initializer": {"config": {}, "class_name": "Ones"}, "name": "batch_normalization_8", "moving_mean_initializer": {"config": {}, "class_name": "Zeros"}, "gamma_initializer": {"config": {}, "class_name": "Ones"}, "gamma_constraint": null, "trainable": true, "momentum": 0.99}, "class_name": "BatchNormalization"}, {"name": "conv2d_10", "inbound_nodes": [[["max_pooling2d_3", 0, 0, {}]]], "config": {"dilation_rate": [1, 1], "use_bias": true, "activation": "linear", "padding": "same", "bias_constraint": null, "activity_regularizer": null, "name": "conv2d_10", "kernel_size": [1, 1], "strides": [1, 1], "bias_initializer": {"config": {}, "class_name": "Zeros"}, "kernel_initializer": {"config": {"seed": null, "scale": 2.0, "distribution": "uniform", "mode": "fan_in"}, "class_name": "VarianceScaling"}, "kernel_constraint": null, "kernel_regularizer": null, "data_format": "channels_first", "filters": 96, "trainable": true, "bias_regularizer": null}, "class_name": "Conv2D"}, {"name": "add_4", "inbound_nodes": [[["batch_normalization_8", 0, 0, {}], ["conv2d_10", 0, 0, {}]]], "config": {"name": "add_4", "trainable": true}, "class_name": "Add"}, {"name": "elu_8", "inbound_nodes": [[["add_4", 0, 0, {}]]], "config": {"name": "elu_8", "trainable": true, "alpha": 1.0}, "class_name": "ELU"}, {"name": "up_sampling2d_1", "inbound_nodes": [[["elu_8", 0, 0, {}]]], "config": {"data_format": "channels_first", "name": "up_sampling2d_1", "size": [2, 2], "trainable": true}, "class_name": "UpSampling2D"}, {"name": "merge_1", "inbound_nodes": [[["up_sampling2d_1", 0, 0, {"mask": [null, null]}], ["elu_6", 0, 0, {"mask": [null, null]}]]], "config": {"mode_type": "raw", "concat_axis": 1, "output_shape_type": "raw", "mode": "concat", "arguments": {}, "name": "merge_1", "output_shape": null, "output_mask": null, "output_mask_type": "raw", "dot_axes": -1}, "class_name": "Merge"}, {"name": "conv2d_14", "inbound_nodes": [[["merge_1", 0, 0, {}]]], "config": {"dilation_rate": [1, 1], "use_bias": true, "activation": "linear", "padding": "same", "bias_constraint": null, "activity_regularizer": null, "name": "conv2d_14", "kernel_size": [3, 3], "strides": [1, 1], "bias_initializer": {"config": {}, "class_name": "Zeros"}, "kernel_initializer": {"config": {"seed": null, "scale": 2.0, "distribution": "uniform", "mode": "fan_in"}, "class_name": "VarianceScaling"}, "kernel_constraint": null, "kernel_regularizer": null, "data_format": "channels_first", "filters": 48, "trainable": true, "bias_regularizer": null}, "class_name": "Conv2D"}, {"name": "batch_normalization_9", "inbound_nodes": [[["conv2d_14", 0, 0, {}]]], "config": {"axis": 1, "epsilon": 0.001, "beta_constraint": null, "scale": true, "beta_regularizer": null, "gamma_regularizer": null, "beta_initializer": {"config": {}, "class_name": "Zeros"}, "center": true, "moving_variance_initializer": {"config": {}, "class_name": "Ones"}, "name": "batch_normalization_9", "moving_mean_initializer": {"config": {}, "class_name": "Zeros"}, "gamma_initializer": {"config": {}, "class_name": "Ones"}, "gamma_constraint": null, "trainable": true, "momentum": 0.99}, "class_name": "BatchNormalization"}, {"name": "elu_9", "inbound_nodes": [[["batch_normalization_9", 0, 0, {}]]], "config": {"name": "elu_9", "trainable": true, "alpha": 1.0}, "class_name": "ELU"}, {"name": "conv2d_15", "inbound_nodes": [[["elu_9", 0, 0, {}]]], "config": {"dilation_rate": [1, 1], "use_bias": true, "activation": "linear", "padding": "same", "bias_constraint": null, "activity_regularizer": null, "name": "conv2d_15", "kernel_size": [3, 3], "strides": [1, 1], "bias_initializer": {"config": {}, "class_name": "Zeros"}, "kernel_initializer": {"config": {"seed": null, "scale": 2.0, "distribution": "uniform", "mode": "fan_in"}, "class_name": "VarianceScaling"}, "kernel_constraint": null, "kernel_regularizer": null, "data_format": "channels_first", "filters": 48, "trainable": true, "bias_regularizer": null}, "class_name": "Conv2D"}, {"name": "batch_normalization_10", "inbound_nodes": [[["conv2d_15", 0, 0, {}]]], "config": {"axis": 1, "epsilon": 0.001, "beta_constraint": null, "scale": true, "beta_regularizer": null, "gamma_regularizer": null, "beta_initializer": {"config": {}, "class_name": "Zeros"}, "center": true, "moving_variance_initializer": {"config": {}, "class_name": "Ones"}, "name": "batch_normalization_10", "moving_mean_initializer": {"config": {}, "class_name": "Zeros"}, "gamma_initializer": {"config": {}, "class_name": "Ones"}, "gamma_constraint": null, "trainable": true, "momentum": 0.99}, "class_name": "BatchNormalization"}, {"name": "conv2d_13", "inbound_nodes": [[["merge_1", 0, 0, {}]]], "config": {"dilation_rate": [1, 1], "use_bias": true, "activation": "linear", "padding": "same", "bias_constraint": null, "activity_regularizer": null, "name": "conv2d_13", "kernel_size": [1, 1], "strides": [1, 1], "bias_initializer": {"config": {}, "class_name": "Zeros"}, "kernel_initializer": {"config": {"seed": null, "scale": 2.0, "distribution": "uniform", "mode": "fan_in"}, "class_name": "VarianceScaling"}, "kernel_constraint": null, "kernel_regularizer": null, "data_format": "channels_first", "filters": 48, "trainable": true, "bias_regularizer": null}, "class_name": "Conv2D"}, {"name": "add_5", "inbound_nodes": [[["batch_normalization_10", 0, 0, {}], ["conv2d_13", 0, 0, {}]]], "config": {"name": "add_5", "trainable": true}, "class_name": "Add"}, {"name": "elu_10", "inbound_nodes": [[["add_5", 0, 0, {}]]], "config": {"name": "elu_10", "trainable": true, "alpha": 1.0}, "class_name": "ELU"}, {"name": "up_sampling2d_2", "inbound_nodes": [[["elu_10", 0, 0, {}]]], "config": {"data_format": "channels_first", "name": "up_sampling2d_2", "size": [2, 2], "trainable": true}, "class_name": "UpSampling2D"}, {"name": "merge_2", "inbound_nodes": [[["up_sampling2d_2", 0, 0, {"mask": [null, null]}], ["elu_4", 0, 0, {"mask": [null, null]}]]], "config": {"mode_type": "raw", "concat_axis": 1, "output_shape_type": "raw", "mode": "concat", "arguments": {}, "name": "merge_2", "output_shape": null, "output_mask": null, "output_mask_type": "raw", "dot_axes": -1}, "class_name": "Merge"}, {"name": "conv2d_17", "inbound_nodes": [[["merge_2", 0, 0, {}]]], "config": {"dilation_rate": [1, 1], "use_bias": true, "activation": "linear", "padding": "same", "bias_constraint": null, "activity_regularizer": null, "name": "conv2d_17", "kernel_size": [3, 3], "strides": [1, 1], "bias_initializer": {"config": {}, "class_name": "Zeros"}, "kernel_initializer": {"config": {"seed": null, "scale": 2.0, "distribution": "uniform", "mode": "fan_in"}, "class_name": "VarianceScaling"}, "kernel_constraint": null, "kernel_regularizer": null, "data_format": "channels_first", "filters": 24, "trainable": true, "bias_regularizer": null}, "class_name": "Conv2D"}, {"name": "batch_normalization_11", "inbound_nodes": [[["conv2d_17", 0, 0, {}]]], "config": {"axis": 1, "epsilon": 0.001, "beta_constraint": null, "scale": true, "beta_regularizer": null, "gamma_regularizer": null, "beta_initializer": {"config": {}, "class_name": "Zeros"}, "center": true, "moving_variance_initializer": {"config": {}, "class_name": "Ones"}, "name": "batch_normalization_11", "moving_mean_initializer": {"config": {}, "class_name": "Zeros"}, "gamma_initializer": {"config": {}, "class_name": "Ones"}, "gamma_constraint": null, "trainable": true, "momentum": 0.99}, "class_name": "BatchNormalization"}, {"name": "elu_11", "inbound_nodes": [[["batch_normalization_11", 0, 0, {}]]], "config": {"name": "elu_11", "trainable": true, "alpha": 1.0}, "class_name": "ELU"}, {"name": "conv2d_18", "inbound_nodes": [[["elu_11", 0, 0, {}]]], "config": {"dilation_rate": [1, 1], "use_bias": true, "activation": "linear", "padding": "same", "bias_constraint": null, "activity_regularizer": null, "name": "conv2d_18", "kernel_size": [3, 3], "strides": [1, 1], "bias_initializer": {"config": {}, "class_name": "Zeros"}, "kernel_initializer": {"config": {"seed": null, "scale": 2.0, "distribution": "uniform", "mode": "fan_in"}, "class_name": "VarianceScaling"}, "kernel_constraint": null, "kernel_regularizer": null, "data_format": "channels_first", "filters": 24, "trainable": true, "bias_regularizer": null}, "class_name": "Conv2D"}, {"name": "batch_normalization_12", "inbound_nodes": [[["conv2d_18", 0, 0, {}]]], "config": {"axis": 1, "epsilon": 0.001, "beta_constraint": null, "scale": true, "beta_regularizer": null, "gamma_regularizer": null, "beta_initializer": {"config": {}, "class_name": "Zeros"}, "center": true, "moving_variance_initializer": {"config": {}, "class_name": "Ones"}, "name": "batch_normalization_12", "moving_mean_initializer": {"config": {}, "class_name": "Zeros"}, "gamma_initializer": {"config": {}, "class_name": "Ones"}, "gamma_constraint": null, "trainable": true, "momentum": 0.99}, "class_name": "BatchNormalization"}, {"name": "conv2d_16", "inbound_nodes": [[["merge_2", 0, 0, {}]]], "config": {"dilation_rate": [1, 1], "use_bias": true, "activation": "linear", "padding": "same", "bias_constraint": null, "activity_regularizer": null, "name": "conv2d_16", "kernel_size": [1, 1], "strides": [1, 1], "bias_initializer": {"config": {}, "class_name": "Zeros"}, "kernel_initializer": {"config": {"seed": null, "scale": 2.0, "distribution": "uniform", "mode": "fan_in"}, "class_name": "VarianceScaling"}, "kernel_constraint": null, "kernel_regularizer": null, "data_format": "channels_first", "filters": 24, "trainable": true, "bias_regularizer": null}, "class_name": "Conv2D"}, {"name": "add_6", "inbound_nodes": [[["batch_normalization_12", 0, 0, {}], ["conv2d_16", 0, 0, {}]]], "config": {"name": "add_6", "trainable": true}, "class_name": "Add"}, {"name": "elu_12", "inbound_nodes": [[["add_6", 0, 0, {}]]], "config": {"name": "elu_12", "trainable": true, "alpha": 1.0}, "class_name": "ELU"}, {"name": "up_sampling2d_3", "inbound_nodes": [[["elu_12", 0, 0, {}]]], "config": {"data_format": "channels_first", "name": "up_sampling2d_3", "size": [2, 2], "trainable": true}, "class_name": "UpSampling2D"}, {"name": "merge_3", "inbound_nodes": [[["up_sampling2d_3", 0, 0, {"mask": [null, null]}], ["elu_2", 0, 0, {"mask": [null, null]}]]], "config": {"mode_type": "raw", "concat_axis": 1, "output_shape_type": "raw", "mode": "concat", "arguments": {}, "name": "merge_3", "output_shape": null, "output_mask": null, "output_mask_type": "raw", "dot_axes": -1}, "class_name": "Merge"}, {"name": "conv2d_20", "inbound_nodes": [[["merge_3", 0, 0, {}]]], "config": {"dilation_rate": [1, 1], "use_bias": true, "activation": "linear", "padding": "same", "bias_constraint": null, "activity_regularizer": null, "name": "conv2d_20", "kernel_size": [3, 3], "strides": [1, 1], "bias_initializer": {"config": {}, "class_name": "Zeros"}, "kernel_initializer": {"config": {"seed": null, "scale": 2.0, "distribution": "uniform", "mode": "fan_in"}, "class_name": "VarianceScaling"}, "kernel_constraint": null, "kernel_regularizer": null, "data_format": "channels_first", "filters": 12, "trainable": true, "bias_regularizer": null}, "class_name": "Conv2D"}, {"name": "batch_normalization_13", "inbound_nodes": [[["conv2d_20", 0, 0, {}]]], "config": {"axis": 1, "epsilon": 0.001, "beta_constraint": null, "scale": true, "beta_regularizer": null, "gamma_regularizer": null, "beta_initializer": {"config": {}, "class_name": "Zeros"}, "center": true, "moving_variance_initializer": {"config": {}, "class_name": "Ones"}, "name": "batch_normalization_13", "moving_mean_initializer": {"config": {}, "class_name": "Zeros"}, "gamma_initializer": {"config": {}, "class_name": "Ones"}, "gamma_constraint": null, "trainable": true, "momentum": 0.99}, "class_name": "BatchNormalization"}, {"name": "elu_13", "inbound_nodes": [[["batch_normalization_13", 0, 0, {}]]], "config": {"name": "elu_13", "trainable": true, "alpha": 1.0}, "class_name": "ELU"}, {"name": "conv2d_21", "inbound_nodes": [[["elu_13", 0, 0, {}]]], "config": {"dilation_rate": [1, 1], "use_bias": true, "activation": "linear", "padding": "same", "bias_constraint": null, "activity_regularizer": null, "name": "conv2d_21", "kernel_size": [3, 3], "strides": [1, 1], "bias_initializer": {"config": {}, "class_name": "Zeros"}, "kernel_initializer": {"config": {"seed": null, "scale": 2.0, "distribution": "uniform", "mode": "fan_in"}, "class_name": "VarianceScaling"}, "kernel_constraint": null, "kernel_regularizer": null, "data_format": "channels_first", "filters": 12, "trainable": true, "bias_regularizer": null}, "class_name": "Conv2D"}, {"name": "conv2d_19", "inbound_nodes": [[["merge_3", 0, 0, {}]]], "config": {"dilation_rate": [1, 1], "use_bias": true, "activation": "linear", "padding": "same", "bias_constraint": null, "activity_regularizer": null, "name": "conv2d_19", "kernel_size": [1, 1], "strides": [1, 1], "bias_initializer": {"config": {}, "class_name": "Zeros"}, "kernel_initializer": {"config": {"seed": null, "scale": 2.0, "distribution": "uniform", "mode": "fan_in"}, "class_name": "VarianceScaling"}, "kernel_constraint": null, "kernel_regularizer": null, "data_format": "channels_first", "filters": 12, "trainable": true, "bias_regularizer": null}, "class_name": "Conv2D"}, {"name": "add_7", "inbound_nodes": [[["conv2d_21", 0, 0, {}], ["conv2d_19", 0, 0, {}]]], "config": {"name": "add_7", "trainable": true}, "class_name": "Add"}, {"name": "cropping2d_1", "inbound_nodes": [[["add_7", 0, 0, {}]]], "config": {"name": "cropping2d_1", "data_format": "channels_first", "trainable": true, "cropping": [[16, 16], [16, 16]]}, "class_name": "Cropping2D"}, {"name": "batch_normalization_14", "inbound_nodes": [[["cropping2d_1", 0, 0, {}]]], "config": {"axis": 1, "epsilon": 0.001, "beta_constraint": null, "scale": true, "beta_regularizer": null, "gamma_regularizer": null, "beta_initializer": {"config": {}, "class_name": "Zeros"}, "center": true, "moving_variance_initializer": {"config": {}, "class_name": "Ones"}, "name": "batch_normalization_14", "moving_mean_initializer": {"config": {}, "class_name": "Zeros"}, "gamma_initializer": {"config": {}, "class_name": "Ones"}, "gamma_constraint": null, "trainable": true, "momentum": 0.99}, "class_name": "BatchNormalization"}, {"name": "elu_14", "inbound_nodes": [[["batch_normalization_14", 0, 0, {}]]], "config": {"name": "elu_14", "trainable": true, "alpha": 1.0}, "class_name": "ELU"}, {"name": "conv2d_22", "inbound_nodes": [[["elu_14", 0, 0, {}]]], "config": {"dilation_rate": [1, 1], "use_bias": true, "activation": "sigmoid", "padding": "valid", "bias_constraint": null, "activity_regularizer": null, "name": "conv2d_22", "kernel_size": [1, 1], "strides": [1, 1], "bias_initializer": {"config": {}, "class_name": "Zeros"}, "kernel_initializer": {"config": {"seed": null, "scale": 1.0, "distribution": "uniform", "mode": "fan_avg"}, "class_name": "VarianceScaling"}, "kernel_constraint": null, "kernel_regularizer": null, "data_format": "channels_first", "filters": 1, "trainable": true, "bias_regularizer": null}, "class_name": "Conv2D"}], "output_layers": [["conv2d_22", 0, 0]], "input_layers": [["input_1", 0, 0]]}, "class_name": "Model", "backend": "tensorflow"}